output/GCN/GCN_PubMed/GCN_PubMed_model.pkl (torch_old, 129946 bytes, 4 tensors)

conv_layers.0.weight f4 [500, 64]
-0.99899226 0.760901 -2.0014203 -1.8459396 -1.096659 -0.48321187 -0.02215595 0.034728214
0.7614579 1.6840699 2.083136 2.019985 -1.9169852 0.61859965 -0.81642795 -2.0310516
0.85506326 -0.28173643 -0.022123378 0.027830476 -0.025922952 0.8089497 0.54747045 -0.026724854
2.0305839 -0.06701779 -0.013426443 -0.019341365 1.9608984 -0.040062763 1.964349 -0.33911338
1.9834453 -1.6062536 0.019939072 -2.0336356 -0.08627927 0.60611665 -0.4425863 0.11007163
2.075393 0.5475706 -0.25756934 -0.04241945 1.2255878 0.31901687 0.28188887 0.23006764
0.05977705 2.0966654 0.12399725 0.029888598 -1.991664 -0.069758676 0.030049544 2.0839345
-2.0029354 -0.459262 0.36161038 0.114066035 -2.0656166 2.0285943 -1.8966086 -2.0341814
0.28691953 0.2455335 0.22384587 0.18569092 -0.016555037 -0.1117857 0.03994906 -0.052827347
-0.02104345 -0.17682086 -0.34148782 -0.08261913 0.17570108 -0.071130574 -0.2557689 0.15702273
-0.011337554 -0.15334469 0.080477856 0.038590048 0.060605388 0.09347146 -0.1792965 -0.007412471
-0.24560791 0.076607116 0.03704515 -0.056813203 -0.1658284 -0.010842466 0.0105220815 0.018714441
-0.351831 0.46628565 -0.016706849 -0.035368107 -0.04973102 -0.15421927 -0.019278575 -0.0042932383
0.039459467 -0.22120301 -0.1542842 -0.023934683 -0.0862015 -0.119521156 -0.036040638 -0.09160032
0.015764216 0.094315305 -0.0751459 0.010580309 0.058167964 -0.012906515 -0.030776301 -0.20004198
0.123678766 0.13074926 0.2975556 -0.039598484 -0.120436035 -0.12478989 0.35151228 -0.0058393357
-0.11534244 0.0043042973 0.018783083 -0.043190937 -0.062213045 0.46898082 -0.0041733766 0.07032456
-0.28151268 -0.18645413 0.39553687 -0.034435775 -0.42690453 0.11150104 0.049848568 -0.14828138
-0.22454941 0.078989625 -0.050434064 0.24574246 -0.024878504 -0.1040495 0.19755518 0.032598827
0.25233364 -0.06355394 0.0510322 -0.043036573 0.18969208 0.0057884697 0.060376078 -0.050486553
0.052974526 -0.17233157 -0.013232838 -0.044162553 0.05394126 0.0745552 0.008928066 -0.03214918
0.0793942 -0.053942762 0.111617014 0.02082261 0.20709904 0.088031515 -0.015195543 0.07732144
0.08542836 -0.16465275 0.48482814 0.010152394 -0.239955 -0.022447374 -0.067685746 -0.062345307
-0.3069758 0.403798 -0.19852121 0.0075003617 -0.19193646 -0.11725066 -0.20573318 -0.019035686
0.20441355 0.094189726 0.11353062 -5.3668587e-05 0.04251075 -0.003865741 0.072836526 -0.008620674
0.23111844 0.030632662 -0.11898939 0.043045748 -0.011241299 0.18563959 -0.19759876 0.10455696
0.25835982 -0.12101749 -0.032500803 0.044107404 0.0052352147 0.2504205 0.14932579 0.057638083
-0.27107388 -0.2583883 0.012695857 -0.054284777 -0.12252176 -0.016094364 0.14035113 -0.056184314
0.33205616 -0.10725826 0.016829265 0.15170932 -0.05152358 -0.11257195 0.070608206 -0.023383118
0.26791415 0.0559376 -0.21693423 0.03955858 0.29973292 -0.050280575 -0.02731525 -0.062139172
-0.12679094 -0.0052139433 0.0065406454 0.0050202655 -0.074530974 0.046628147 -0.121184364 -0.22437905
0.010362657 -0.08151242 0.10512925 -0.04055095 -0.039774027 -0.102838635 0.0012626172 0.005651147
00000000: f5bd 7fbf 68ca 423f 4517 00c0 c047 ecbf
00000010: 525f 8cbf 8c67 f7be 6580 b5bc 2c3f 0e3d
00000020: e8ee 423f 9a8f d73f 1a52 0540 6f47 0140
00000030: c55f f5bf 8c5c 1e3f 6c01 51bf c0fc 01c0
00000040: 6de5 5a3f c23f 90be 163c b5bc bdfc e33c
00000050: 5f5c d4bc 5417 4f3f 0627 0c3f 15ee dabc
00000060: 16f5 0140 a040 89bd 95fa 5bbc c871 9ebc
00000070: b8fe fa3f da18 24bd ca6f fb3f 45a0 adbe
00000080: 89e1 fd3f b899 cdbf 4457 a33c 1627 02c0
00000090: 30b3 b0bd 762a 1b3f ac9a e2be 3c6d e13d
000000a0: 3dd3 0440 962d 0c3f 21e0 83be 04c0 2dbd
000000b0: 10e0 9c3f 2e56 a33e bd53 903e da96 6b3e
000000c0: c8d8 743d c42f 0640 45f2 fd3d efd8 f43c
000000d0: d9ee febf a3dd 8ebd 762a f63c 2f5f 0540
000000e0: 1830 00c0 6424 ebbe ff24 b93e 749b e93d
000000f0: 1033 04c0 7dd4 0140 12c4 f2bf 0730 02c0
00000100: 1ee7 923e 226d 7b3e da37 653e c325 3e3e
00000110: 6e9e 87bc e7ef e4bd a0a1 233d 7d61 58bd
00000120: 5063 acbc 8710 35be 7ed7 aebe 3834 a9bd
00000130: fcea 333e e8ac 91bd 24f4 82be 91ca 203e
00000140: 26c1 39bc 6406 1dbe 93d1 a43d 9910 1e3d
00000150: 5b3d 783d f76d bf3d 8099 37be 50e4 f2bb
00000160: a480 7bbe 31e4 9c3d a8bc 173d f6b4 68bd
00000170: ecce 29be 99a4 31bc cf64 2c3c 074f 993c
00000180: 3123 b4be febc ee3e cddc 88bc 26de 10bd
00000190: c1b2 4bbd a8eb 1dbe 1aee 9dbc 4bae 8cbb
000001a0: 40a0 213d 0b83 62be adfc 1dbe ab12 c4bc
000001b0: 698a b0bd 82c7 f4bd 599f 13bd f398 bbbd
000001c0: f523 813c 6228 c13d 18e6 99bd 0859 2d3c
000001d0: 8841 6e3d d975 53bc 951e fcbc ced7 4cbe
000001e0: 4b4b fd3d 22e3 053e 3559 983e 0532 22bd
000001f0: 2ba7 f6bd d891 ffbd 6bf9 b33e e657 bfbb
00000200: a838 ecbd 100b 8d3b fbde 993c fbe8 30bd
00000210: 1bd3 7ebd 411e f03e d2c0 88bb 5306 903d
00000220: 6e22 90be d5ed 3ebe cf83 ca3e 870c 0dbd
00000230: 3b93 dabe a85a e43d 032e 4c3d 13d7 17be
00000240: 48f0 65be 50c5 a13d f393 4ebd e9a3 7b3e
00000250: 01ce cbbc e717 d5bd e84b 4a3e 5986 053d
00000260: e031 813e 9128 82bd 2407 513d 1e47 30bd
00000270: a43e 423e 34ad bd3b e84c 773d fdca 4ebd
00000280: d1fb 583d b077 30be 8cce 58bc cbe3 34bd
00000290: 83f1 5c3d 66b0 983d 0647 123c dcae 03bd
000002a0: 6d99 a23d 16f3 5cbd 7697 e43d 2e94 aa3c
000002b0: c511 543e de49 b43d baf6 78bc b45a 9e3d
000002c0: 10f5 ae3d bb9a 28be 653b f83e 3a56 263c
000002d0: c3b6 75be 8ee3 b7bc d39e 8abd cb5d 7fbd
000002e0: ef2b 9dbe 9dbe ce3e 2549 4bbe 98c5 f53b
000002f0: fe8a 44be 1d21 f0bd b8ab 52be baf0 9bbc
00000300: c951 513e 8be6 c03d be82 e83d 351a 61b8
00000310: c11f 2e3d 5f58 7dbb 512b 953d ba3d 0dbc
00000320: 50aa 6c3e 59f1 fa3c b6b0 f3bd bd50 303d
00000330: 6d2d 38bc 4e18 3e3e 5457 4abe f621 d63d
00000340: bd47 843e 05d8 f7bd 901f 05bd f7a9 343d
00000350: 2a8c ab3b 1e37 803e dce8 183e e915 6c3d
00000360: 32ca 8abe 794b 84be 4902 503c b759 5ebd
00000370: b0ec fabd 54d8 83bc 35b8 0f3e 8621 66bd
00000380: 4403 aa3e 38aa dbbd 87dd 893c b059 1b3e
00000390: 640a 53bd 1f8c e6bd 099b 903d f48d bfbc
000003a0: 0b2c 893e d31e 653d 0224 5ebe 2d08 223d
000003b0: 9876 993e 01f3 4dbd 3bc4 dfbc a585 7ebd
000003c0: 7cd5 01be bad9 aabb e952 d63b 0a81 a43b
000003d0: b2a3 98bd 28fd 3e3d 822f f8bd 9fc3 65be
000003e0: 22c8 293c fcef a6bd 014e d73d c118 26bd
000003f0: 17ea 22bd 109d d2bd 677e a53a 422d b93b

conv_layers.0.bias f4 [64]
-6.1749543e-06 0.080001116 0.17996936 0.12001106 0.120000646 0.020008512 -0.7391858 -0.22049077
0.08005786 0.039887264 0.05999247 -0.120009564 0.18000314 0.20212701 0.060023934 0.14000978
0.0999851 0.16000926 -0.33995324 0.07999898 -0.000527111 -0.020085571 0.11966271 -0.20092714
-0.039979577 0.060057167 -0.6600141 -0.059220448 0.14003244 -0.3599405 0.18040745 0.31992814
0.13999301 0.14000791 0.38002458 0.22001171 -0.58005667 0.16017091 0.14014201 0.12017821
0.01999316 0.2398857 0.040003385 -0.5198721 0.10000647 0.020029202 0.21995334 0.18000522
-0.09990826 -0.039976683 0.08001175 -0.49973366 0.2400213 -0.17992686 -0.64089084 0.03998528
0.16010907 0.059970763 0.08001042 -0.020211244 0.12050873 0.20000862 0.09999637 0.16005138
00000000: 7432 cfb6 a0d7 a33d e349 383e 5cc8 f53d
00000010: e6c2 f53d e4e8 a33c 483b 3dbf 55c8 61be
00000020: 60f5 a33d d460 233d aaba 753d 93c7 f5bd
00000030: be52 383e 62fa 4e3e a8db 753d b95e 0f3e
00000040: fdc4 cc3d 78d9 233e 5a0e aebe 81d6 a33d
00000050: d22d 0aba 7f8a a4bc b911 f53d d8bf 4dbe
00000060: a0c1 23bd 81fe 753d aff6 28bf 2491 72bd
00000070: aa64 0f3e 1f4a b8be bbbc 383e 9fcd a33e
00000080: 545a 0f3e 3c5e 0f3e 9592 c23e c04a 613e
00000090: 987e 14bf d803 243e 6381 0f3e fe1f f63d
000000a0: b2c8 a33c 99a4 753e 97da 233d 5716 05bf
000000b0: 31d0 cc3d 4814 a43c 733b 613e 4a53 383e
000000c0: b49c ccbd 97be 23bd 33dd a33d 17dd ffbe
000000d0: 25c8 753e bf3e 38be 6c11 24bf 9bc7 233d
000000e0: a2f3 233e e7a3 753d 81dc a33d 0d92 a5bc
000000f0: 48cd f63d 0fcf 4c3e e6ca cc3d 82e4 233e

conv_layers.1.weight f4 [64, 3]
-1.945945 2.1013725 -2.016906 1.861086 1.9704751 -2.2823806 -2.0901167 1.8490952
1.8709499 -2.141605 2.116229 -2.1283135 -2.0339735 -1.9154568 2.182791 -2.146979
-2.223621 2.0164206 0.050053064 -0.034791812 0.004371629 -0.027153678 0.22146764 -0.09578013
1.9668137 2.1411083 -2.253535 1.9244409 1.8261237 -2.2815452 2.27883 -2.1996467
-1.8550669 2.1237977 -2.164684 -2.089563 -1.9871156 2.1725419 -1.9531022 0.86958545
-1.3244658 0.96250266 -2.1715727 -2.1259375 2.0065377 -2.003618 2.1405675 2.1889653
1.7575251 1.8096422 -2.2734063 -2.007766 -2.016393 2.0086198 -0.15778401 0.16927323
-0.033198085 -1.833715 -2.0195427 2.195184 0.0042013205 0.1600639 0.02020055 2.0811706
2.151182 -1.9530904 1.0880287 -1.3055918 1.0534906 -0.057185862 0.0334301 -0.021720992
2.224266 -2.0243802 -2.105855 -1.9102587 -2.02132 2.163083 0.3181458 0.1499444
0.0042096134 0.0442356 -0.011702306 -0.06567275 2.171596 -2.174916 1.9947143 -0.175538
-0.1960673 -0.021502506 2.035171 -2.1588006 -2.239071 -0.26167426 0.21981688 0.21082826
2.2427502 -2.1138144 -1.882048 -2.1140473 2.0389433 -2.0211198 0.12864372 0.17368543
-0.16805859 -2.2369564 2.179507 2.1050491 0.07395119 0.19384158 -0.16357496 1.214425
-1.5084647 1.2050495 -1.5482816 1.7003559 -1.3566631 0.4540939 -0.46347573 0.22714187
2.2373 -2.2522993 -1.8867077 1.1103153 -1.2686357 0.6499075 -1.9161954 -2.0263712
2.116667 -0.12628588 0.11326643 -0.21883954 2.064418 2.1413598 -2.210231 0.01163445
-0.71643454 0.44212136 0.26987463 -0.13544038 0.073960945 0.16446058 -0.30516335 -0.17945023
-0.006390691 0.08240952 0.26080555 2.1858459 -2.0796595 -2.1093802 -2.0236733 -2.228304
2.1046011 -0.18166487 0.033019688 -0.28008005 -2.2401876 2.2097588 1.9737504 -0.0269428
0.24052228 0.020722764 -0.04114252 0.16173266 0.034823727 2.2170424 -1.7794333 -1.806876
-2.160514 2.157175 -2.155376 -2.1340218 -2.2265332 2.0361392 1.8854666 2.1657572
-2.2158184 -0.00092543324 -0.014358213 0.08945951 -2.0974436 2.1003869 1.9897621 2.2113643
-2.1516104 -1.281963 -1.9505183 2.2771564 -1.9688239 -2.1327114 1.9440637 1.9576586
00000000: ba14 f9bf e37c 0640 fd14 01c0 1138 ee3f
00000010: 8738 fc3f 8612 12c0 79c4 05c0 27af ec3f
00000020: 497b ef3f 0e10 09c0 4c70 0740 4a36 08c0
00000030: 9f2c 02c0 b02d f5bf d9b2 0b40 1b68 09c0
00000040: ce4f 0ec0 090d 0140 7104 4d3d dc81 0ebd
00000050: e23f 8f3b 6471 debc 6ac8 623e 5f28 c4bd
00000060: 8dc0 fb3f eb07 0940 eb39 10c0 1454 f63f
00000070: 6cbe e93f d604 12c0 5ad8 1140 03c7 0cc0
00000080: d572 edbf 4dec 0740 2f8a 0ac0 66bb 05c0
00000090: ce59 febf ed0a 0b40 41ff f9bf 279d 5e3f
000000a0: 1888 a9bf 9366 763f 0cfb 0ac0 5c0f 08c0
000000b0: 1d6b 0040 473b 00c0 0fff 0840 0218 0c40
000000c0: 95f6 e03f 5ba2 e73f 7d7f 11c0 3d7f 00c0
000000d0: 950c 01c0 3a8d 0040 2292 21be f655 2d3e
000000e0: b7fa 07bd 2cb7 eabf 3040 01c0 e57d 0c40
000000f0: 3bab 893b cae7 233e a07b a53c e631 0540
00000100: f7ac 0940 defe f9bf 8644 8b3f a21d a7bf
00000110: c8d8 863f b93b 6abd 00ee 083d 39f0 b1bc
00000120: 605a 0e40 728f 01c0 54c6 06c0 5b83 f4bf
00000130: 4f5d 01c0 f46f 0a40 02e4 a23e 068b 193e
00000140: ccf0 893b 6330 353d 07bb 3fbc 6f7f 86bd
00000150: 6efb 0a40 d331 0bc0 cc52 ff3f 3cc0 33be
00000160: dec5 48be 0626 b0bc 3e40 0240 ca29 0ac0
00000170: f04c 0fc0 2bfa 85be ad17 613e 5de3 573e
00000180: 3889 0f40 bc48 07c0 f3e6 f0bf 8d4c 07c0
00000190: 0c7e 0240 075a 01c0 2ebb 033e 98da 313e
000001a0: 8d17 2cbe 4b2a 0fc0 0b7d 0b40 20b9 0640
000001b0: b973 973d 687e 463e 3280 27be 4772 9b3f
000001c0: 5f15 c1bf 103f 9a3f 172e c6bf 43a5 d93f
000001d0: 23a7 adbf ff7e e83e b14c edbe e197 683e
000001e0: ec2f 0f40 ac25 10c0 a37f f1bf d01e 8e3f
000001f0: a862 a2bf 5760 263f e445 f5bf 11b0 01c0
00000200: 7977 0740 1651 01be 3bf8 e73d 7917 60be
00000210: 6d1f 0440 0a0c 0940 6d74 0dc0 6c9e 3e3c
00000220: 4168 37bf bb5d e23e 022d 8a3e e2b0 0abe
00000230: d678 973d 5b68 283e 5f3e 9cbe cdc1 37be
00000240: 0069 d1bb 53c6 a83d 4e88 853e e6e4 0b40
00000250: 2419 05c0 1600 07c0 dd83 01c0 889c 0ec0
00000260: c9b1 0640 5b06 3abe a73f 073d a766 8fbe
00000270: 3c5f 0fc0 b06c 0d40 daa3 fc3f 26b7 dcbc
00000280: 794b 763e c9c2 a93c 0f85 28bd 3f9d 253e
00000290: 53a3 0e3d 06e4 0d40 78c4 e3bf b647 e7bf
000002a0: dd45 0ac0 280f 0a40 aef1 09c0 d093 08c0
000002b0: 857f 0ec0 1b50 0240 f856 f13f c49b 0a40
000002c0: f8cf 0dc0 c698 72ba b63e 6bbc 8c36 b73d
000002d0: 843c 06c0 bd6c 0640 86b0 fe3f fe86 0d40
000002e0: fcb3 09c0 5d17 a4bf 95aa f9bf eebc 1140
000002f0: 6c02 fcbf 587e 08c0 14d7 f83f 8f94 fa3f

conv_layers.1.bias f4 [3]
-0.48029378 0.30002475 9.782898e-06
00000000: 11e9 f5be d89c 993e 3a21 2437
