output/GAT/GAT_CiteSeer/GAT_CiteSeer_model.pkl (torch_old, 951527 bytes, 6 tensors)

conv_layers.0.weight f4 [3703, 64]
0	0xbe017004	-0.12640387
1	0x3e72296e	0.23648617
2	0xbe0b4cf8	-0.1360358
3	0xbd7351b1	-0.05940408
4	0x3d5c1caa	0.053738274
5	0x3d22fa83	0.039789688
6	0xbd702896	-0.058632456
7	0xbe2c11d3	-0.16803674
8	0x3e5c7115	0.21527512
9	0x3d87da0c	0.06633386
10	0x3e7aab3e	0.24479386
11	0xbddffc33	-0.10936775
12	0x3d019fdd	0.031646598
13	0xbe667e45	-0.22509106
14	0xbde13291	-0.10995973
15	0xbd114986	-0.035470508
16	0xbe5f273d	-0.21792312
17	0xbe64089b	-0.22268908
18	0xbdf35850	-0.11882079
19	0x3e15f44e	0.14643976
20	0xbd4ad3aa	-0.049518265
21	0xbe4d69c1	-0.20059873
22	0xbd8bd4c4	-0.06827691
23	0xbdd0bcee	-0.101922855
24	0x3b9bf862	0.004759834
25	0x3ecc35cd	0.39884797
26	0x3e1a6a97	0.15079723
27	0x3ed798af	0.42108676
28	0xbde58a2a	-0.11207993
29	0xbe12f170	-0.14349914
30	0xbe46b561	-0.19405128
31	0x3e5a800e	0.21337911
32	0xbe076e95	-0.13225777
33	0xbe6b1b8d	-0.22959729
34	0xbead4bfd	-0.33847037
35	0xbe5accf5	-0.21367247
36	0x3eba2ed1	0.36363843
37	0x3e3d9ba0	0.18516397
38	0x3e881a5d	0.26582614
39	0xbd7bab79	-0.061442826
40	0xbd054f23	-0.032546174
41	0xbe15e8b5	-0.14639552
42	0xbe0d247e	-0.13783452
43	0x3da79578	0.08182806
44	0x3e1d4716	0.15359148
45	0x3d9dbde8	0.07702237
46	0xbcab7552	-0.020929966
47	0x3e6f81d8	0.23389375
48	0xbd93da67	-0.07219391
49	0x3e02d26e	0.12775585
50	0xbd922c92	-0.07137407
51	0x3d0faf4e	0.035079293
52	0xbdd03fba	-0.10168405
53	0xbcee9a3d	-0.02912628
54	0xbe3afd29	-0.18260635
55	0x3e27e092	0.1639426
56	0x3d66db05	0.056361217
57	0xbc1b8287	-0.009491569
58	0xbe13fbac	-0.14451474
59	0x3c575959	0.013143861
60	0xbdd5eed8	-0.104459465
61	0xbd98fcd1	-0.07470096
62	0x3e04e610	0.12978387
63	0x3ea45c71	0.32101777
64	0xbdbf08b0	-0.09327829
65	0xbe93e441	-0.2888508
66	0xbe201a68	-0.15635073
67	0xbe4021a4	-0.18762833
68	0x3e9fbf2a	0.31200534
69	0x3d9279e5	0.07152156
70	0xbe345e9e	-0.17614219
71	0xbe216d67	-0.1576439
72	0xbe27f163	-0.16400675
73	0xbe70749d	-0.23481984
74	0x3e99fc16	0.3007514
75	0xbc123836	-0.008924535
76	0xbe2b8634	-0.16750413
77	0x3eba27c4	0.36358464
78	0x3e955e9f	0.29173753
79	0x3b9dc1e8	0.004814375
80	0x3bd4e382	0.0064968476
81	0xbe827efa	-0.254875
82	0xbdd92110	-0.10602009
83	0xbe89365a	-0.2679928
84	0xbd58933d	-0.052874792
85	0xbded78e4	-0.11595324
86	0xbe70f548	-0.23531067
87	0x3c7c6eb8	0.015407257
88	0x3d16c0b3	0.036804866
89	0xbe2d5e31	-0.16930462
90	0x3e3efe79	0.18651761
91	0xb74eb5d6	-1.2320894e-05
92	0xbe524619	-0.20534553
93	0xbefda50c	-0.49539983
94	0xbe12748e	-0.14302275
95	0x3eee09e9	0.46491936
96	0x3e5045a9	0.20339073
97	0x3e84ca8c	0.2593578
98	0xbe89398c	-0.26801717
99	0x3e1a6062	0.1507583
100	0x3e91f290	0.28505373
101	0xbd497889	-0.049187217
102	0xbbac6a21	-0.005261675
103	0xbe048007	-0.12939464
104	0x3eeaeab6	0.45882195
105	0xbe4cac97	-0.19987713
106	0x3e5871e2	0.21137193
107	0xbea89bec	-0.3293146
108	0x3c1143d0	0.008866265
109	0x3e6e66ed	0.2328145
110	0xbc875a43	-0.016522532
111	0x3e4e5c04	0.20152289
112	0x3df5ba31	0.11998404
113	0xbe6739e0	-0.22580671
114	0x3ea9138b	0.33022723
115	0x3dd80d3a	0.10549398
116	0xbc510190	-0.01275672
117	0x3dc5b2fc	0.09653279
118	0x3eb2891c	0.3487023
119	0x3c10828e	0.008820189
120	0x3ec8f288	0.39247537
121	0xbea5b6be	-0.32365984
122	0xbe2b1303	-0.16706471
123	0xbd7d6d8e	-0.061872058
124	0x3d7ea8b0	0.06217259
125	0x3ca06007	0.01957704
126	0x3e258844	0.16165262
127	0x3cc441b4	0.023957111
128	0xbd0e0eab	-0.034681957
129	0xbc109b76	-0.008826127
130	0xbd96ac01	-0.07357026
131	0x3bb67a7d	0.005568801
132	0xb881f1f0	-6.196264e-05
133	0x3c0d9d5a	0.008643473
134	0x3cd32f04	0.025779255
135	0xbd10d73e	-0.03536152
136	0x3c91bdf7	0.017790778
137	0xbcd46da4	-0.025931187
138	0x3cb24bf4	0.021764733
139	0x3c7befdd	0.015377012
140	0x3c310fa4	0.010806952
141	0xbbe01dcd	-0.00683949
142	0xbb23a3ee	-0.0024969536
143	0xbc29f4d8	-0.010373317
144	0xbca7b97a	-0.020474184
145	0x3b285692	0.0025686366
146	0x3c426616	0.0118651595
147	0x3bcabfb9	0.006187406
148	0x3c649b65	0.013953065
149	0xbd436ed6	-0.047713123
150	0x3b3bc00e	0.002864841
151	0xbcf8d436	-0.030374628
152	0x3d0b7bd6	0.034053646
153	0x3cee3c65	0.029081533
154	0xbd3dd58d	-0.046346236
155	0x3c35bf9b	0.011093046
156	0xba1cac3f	-0.00059765944
157	0xbd5959f5	-0.053064305
158	0xbc46d841	-0.01213652
159	0x3b3454c3	0.0027516342
160	0x3c280a35	0.01025634
161	0xbd758fbb	-0.059951525
162	0x3cc06bf1	0.02348897
163	0x3d4e288d	0.05033164
164	0xbcb9b69d	-0.022670085
165	0xbd25f2e9	-0.04051486
166	0xbcc41f14	-0.0239406
167	0x3c8649c7	0.016392602
168	0x3d459505	0.04823782
169	0x3b9a238e	0.0047039455
170	0xbd162534	-0.036656573
171	0x3bc7e624	0.006100433
172	0xbd2500a0	-0.0402838
173	0x3ceb7f88	0.028747335
174	0x3cf7e6b5	0.030261377
175	0xbc082223	-0.00830892
176	0xbc206f13	-0.009792107
177	0x3b9edcd4	0.004848102
178	0x3cf3f1b1	0.029778333
179	0xbb8fe04d	-0.0043907524
180	0xbc08be6f	-0.008346184
181	0xbb2101dc	-0.0024567759
182	0xbce34235	-0.02774153
183	0xbc927d43	-0.017881995
184	0x3c537bc5	0.012907927
185	0x3c9a2b39	0.018819438
186	0xbc8e2553	-0.017351782
187	0xbc0fd235	-0.008778145
188	0xbd0cac17	-0.034343805
189	0xbd0bec67	-0.034160998
190	0xbd060ad3	-0.032725167
191	0xbcc16503	-0.023607736
192	0x3da0e1d9	0.07855577
193	0xbbab500b	-0.0052280477
194	0x3c947ac7	0.018124951
195	0x3dd1760f	0.10227596
196	0x3dd1d4e2	0.10245682
197	0x3d454358	0.048159927
198	0xbda47415	-0.080299534
199	0xbdc4f44f	-0.09616911
200	0x3c70b95b	0.01469263
201	0xbda1485d	-0.0787513
202	0xbd3881b3	-0.045045566
203	0xbddcf69c	-0.107892245
204	0x3da89a90	0.082326055
205	0x3cbcbceb	0.023039302
206	0x3e0b5118	0.13605154
207	0xbdccd99e	-0.10002445
208	0xbe0f525d	-0.13996263
209	0xbdd875a8	-0.10569316
210	0x3dcea3c2	0.10089828
211	0xbd74f52e	-0.059804134
212	0x3d4f1c0c	0.050563857
213	0xbe236a11	-0.1595843
214	0xbdad3953	-0.08458199
215	0xbdc56908	-0.09639174
216	0x3dd5f920	0.104479074
217	0xbe0ae480	-0.13563728
218	0x3d841cf4	0.06450835
219	0x3da2f0da	0.07956095
220	0xbd8966e6	-0.067090794
221	0xbc07730d	-0.008267176
222	0x3ca1be88	0.019744173
223	0xbcf61a9a	-0.030041981
224	0x3d986ed1	0.074430116
225	0x3e11e5be	0.14247796
226	0xbc1c2a6a	-0.009531597
227	0xbe1486f1	-0.14504601
228	0xbd987343	-0.074438594
229	0x3cb605ea	0.022219617
230	0xbdd62af3	-0.10457411
231	0xbda345d3	-0.07972302
232	0xbd0e5f77	-0.03475901
233	0xbdca2b69	-0.09871561
234	0x3d11a750	0.035559952
235	0x3b908675	0.00441056
236	0x3e2a13f5	0.16609176
237	0x3dca0104	0.09863475
238	0xbd5e527c	-0.054277882
239	0xbdf88588	-0.12134844
240	0xbdaa5386	-0.08316712
241	0x3d3990fb	0.04530428
242	0x3e558cdc	0.20854515
243	0x3b09afcb	0.0021009322
244	0xbc293c1a	-0.010329271
245	0xbd84866a	-0.0647095
246	0x3ddd8c14	0.108177334
247	0xbcd17d7d	-0.025572533
248	0xbca0a552	-0.01961008
249	0x3d1c142c	0.038105175
250	0x3d2f6a77	0.042826142
251	0x3cc9cf39	0.024634944
252	0xbd7d6a97	-0.06186923
253	0x3d733c3a	0.05938361
254	0x3cbf3c32	0.023344133
255	0xbc57c017	-0.013168356

conv_layers.0.att f4 [1, 8, 16]
0	0x3e5b3db5	0.21410258
1	0xbdee0e0e	-0.116237745
2	0xbeeb812e	-0.45996994
3	0xbd803665	-0.06260375
4	0xbe8c748a	-0.27432662
5	0x3e1f78f4	0.15573484
6	0x3e5dafd8	0.2164911
7	0xbe9bf771	-0.3046222
8	0xbd04a2bf	-0.03238177
9	0xbdc05b09	-0.093923636
10	0xbf412d14	-0.7545941
11	0xbf14050d	-0.57820207
12	0x3e9201cc	0.28516996
13	0xbef448a4	-0.4771167
14	0xbf03bd71	-0.5146094
15	0xbf0a0a3c	-0.53921866
16	0xbd91ac2b	-0.071129166
17	0xbf197782	-0.5994798
18	0xbe262536	-0.16225132
19	0xbe3815f1	-0.1797712
20	0x3e2ed558	0.17073572
21	0x3e2f40b5	0.17114528
22	0x3ec69a42	0.38789564
23	0x3da6d2e4	0.08145693
24	0xbe64b980	-0.22336388
25	0xbef1f6f5	-0.47258726
26	0xbbf7f6fa	-0.0075672837
27	0xbee2ba30	-0.44282675
28	0xbf033667	-0.51254886
29	0x3f3ac8d0	0.72962666
30	0x3ef9f564	0.4882003
31	0xbd51944c	-0.051166818
32	0x3e7e544b	0.24836843
33	0xbe63c4b4	-0.22243005
34	0xbed11c8d	-0.40842095
35	0x3f054302	0.5205537
36	0xbd7c5c2a	-0.061611332
37	0xbcb28f0d	-0.021796728
38	0x3e8f5d6c	0.28000963
39	0x3e4644b2	0.19362143
40	0xbe4b9a4d	-0.1988308
41	0xbf3a2ec5	-0.72727615
42	0xbf075c7f	-0.5287551
43	0x3f1a8a65	0.60367423
44	0x3c8035d6	0.015650671
45	0xbf119e10	-0.5688181
46	0xbe243754	-0.16036731
47	0xbf0f740a	-0.56036437
48	0x3e2a24fc	0.16615671
49	0x3ea4e8c1	0.32208827
50	0x3eaaca31	0.33357385
51	0x3dd77e8b	0.10522183
52	0xbde01e98	-0.10943335
53	0x3cbfa45d	0.023393804
54	0x3e44c1c2	0.19214538
55	0xbdb08aa8	-0.086201966
56	0x3eee3c36	0.46530312
57	0x3f0db207	0.55349773
58	0x3f2ca762	0.67442906
59	0xbd5a29d1	-0.053262535
60	0xbe2bb841	-0.16769506
61	0xbf4265fd	-0.7593687
62	0x3f01f32b	0.5076167
63	0xbe2fc582	-0.17165187
64	0xbe6a6a9c	-0.22892231
65	0xbe149c39	-0.14512719
66	0x3db6c5ab	0.08924421
67	0x3d3ae618	0.04562959
68	0xbe047dca	-0.1293861
69	0xbdff6df6	-0.12472145
70	0xbe791acb	-0.24326627
71	0x3e8ef2a2	0.2791949
72	0xbef7d4be	-0.48404497
73	0xbc61be26	-0.013778245
74	0xbea6b1ec	-0.3255762
75	0x3e0c1770	0.13680816
76	0xbf5be63b	-0.8589818
77	0xbe6a05a1	-0.2285371
78	0xbec37744	-0.3817693
79	0x3f4250d4	0.75904584
80	0x3e10c086	0.14135942
81	0xbf1e5f25	-0.6186393
82	0x3e8760cd	0.2644104
83	0xbdc5307d	-0.09628389
84	0x3e378b95	0.1792434
85	0x3e8387cb	0.2568954
86	0x3d4325a7	0.04764333
87	0x3d8a6e63	0.06759336
88	0x3f474f14	0.7785504
89	0xbf55a490	-0.8345423
90	0x3f49d2e8	0.7883744
91	0xbf4eb60b	-0.80746526
92	0x3ecc635b	0.39919552
93	0xbe478bfa	-0.1948699
94	0xbda6c2df	-0.081426375
95	0x3e6eedaf	0.23332857
96	0x3e8df51a	0.2772606
97	0xbdb7c5a9	-0.089732476
98	0xbd3b54a4	-0.045735016
99	0x3e1a50bb	0.15069859
100	0x3e503728	0.2033354
101	0xbde28478	-0.11060423
102	0x3e3c9cb2	0.1841915
103	0xbedf95ba	-0.4366892
104	0x3f2600c4	0.6484492
105	0xbd312277	-0.04324576
106	0x3f156d08	0.58369493
107	0xbf18b778	-0.5965495
108	0x3e7289f6	0.2368544
109	0xbdd8e756	-0.10590999
110	0x3f35e9ac	0.7105968
111	0xbf6c3411	-0.9226695
112	0xbe5ad651	-0.21370818
113	0x3e839a1e	0.2570352
114	0x3e072b07	0.13200007
115	0x3dae45e0	0.08509421
116	0x3ec3bdc1	0.38230708
117	0xbde0fce6	-0.109857365
118	0xbe0694c0	-0.13142681
119	0x3dc13dad	0.09435592
120	0xbf3a6267	-0.728064
121	0xbe655113	-0.22394209
122	0x3ec37828	0.3817761
123	0x3f023b5c	0.50871825
124	0x3e5fcdb8	0.21855819
125	0x3f0fb13b	0.5612981
126	0xbe9f9e9c	-0.31175697
127	0x3e541377	0.2071055

conv_layers.0.bias f4 [64]
0	0xbde14a89	-0.110005446
1	0x3d236f0c	0.039900824
2	0xb4542e44	-1.976087e-07
3	0xbd4ccd6f	-0.050000604
4	0x3ca3d46a	0.019998748
5	0xbc23e728	-0.010003842
6	0x3d23d8bc	0.040001616
7	0xbcf5e403	-0.030015951
8	0xbd23d1d7	-0.03999504
9	0xbda3d60d	-0.07999811
10	0xb6786776	-3.7015102e-06
11	0x3e051ecf	0.13000034
12	0xbdcccc67	-0.09999924
13	0x3d8f48dd	0.069963194
14	0xbd23d962	-0.040002234
15	0xbd8f5cbb	-0.07000109
16	0xbde15ac9	-0.11003644
17	0xbda3d598	-0.07999724
18	0xb5c75380	-1.4850957e-06
19	0xbd4cd250	-0.050005257
20	0x3da3d2a9	0.079991646
21	0xbd8f5d13	-0.070001744
22	0x3cf5baf0	0.029996365
23	0xbca3ccd3	-0.019995129
24	0x3d75bb7f	0.059993263
25	0x3c23cf13	0.009998101
26	0xbd23db13	-0.040003847
27	0xbe052104	-0.13000876
28	0x3c2430c4	0.010021392
29	0x3d8f5b8d	0.06999884
30	0x3cf5c6ca	0.030002017
31	0xbd4cd4c4	-0.050007597
32	0xbd8f5e11	-0.070003636
33	0xbd4ccf46	-0.05000236
34	0xbdcccd58	-0.10000104
35	0x3ca3dbf7	0.020002348
36	0x3d4ccd0d	0.05000024
37	0xbdcccbba	-0.09999795
38	0xbe051ef8	-0.13000095
39	0xbcf639d7	-0.030056877
40	0xbca3c620	-0.019991934
41	0xbc23ecf9	-0.010005229
42	0x3da3db32	0.080007926
43	0x35cc85c8	1.523812e-06
44	0xbca307f5	-0.019901255
45	0x3d8f5dce	0.07000314
46	0xbcf5c44a	-0.030000824
47	0x3c23a28d	0.009987486
48	0x3ca3e9ff	0.020009039
49	0x3ca3d748	0.020000115
50	0xbda3d435	-0.0799946
51	0xbdb86176	-0.09002964
52	0xb4664089	-2.1443897e-07
53	0xbc23d7f5	-0.010000219
54	0xbd4ccf21	-0.05000222
55	0xbcf394a2	-0.02973396
56	0x3d4cbae3	0.049982917
57	0xbd75c90f	-0.060006198
58	0x3c23d426	0.009999311
59	0x3ca3e056	0.020004433
60	0xbd4ccd82	-0.050000675
61	0x3d23d52b	0.039998215
62	0xbdb85cec	-0.090020984
63	0x3de147d4	0.11000028

conv_layers.1.weight f4 [64, 6]
0	0xbf8caf9c	-1.0991092
1	0xbf80ba7e	-1.0056913
2	0xbf306776	-0.6890787
3	0x3fa3e3f0	1.2803936
4	0x3f95fe69	1.1718265
5	0xbf9279e5	-1.1443449
6	0xbf9766ce	-1.1828249
7	0x3f9c618d	1.221727
8	0x3f8993d9	1.0748245
9	0xbf8d8c37	-1.1058415
10	0x3f829a49	1.0203334
11	0x3f8151cf	1.0103091
12	0xbf9f7b10	-1.2459431
13	0x3f95c639	1.1701118
14	0x3ea8fc84	0.33005154
15	0x3f9372b7	1.1519383
16	0xbf847e1b	-1.0350984
17	0xbfa075f1	-1.2535993
18	0xbf8fa847	-1.1223229
19	0x3f9cc5c6	1.2247856
20	0x3f93457b	1.1505579
21	0x3f99a212	1.2002585
22	0x3f9e7b6e	1.2381418
23	0xbf8d310d	-1.1030594
24	0x3f8306df	1.0236472
25	0x3f91159b	1.1334718
26	0xbf84ed7c	-1.0384974
27	0xbf67fb58	-0.90617895
28	0x3f94c687	1.1623086
29	0x3f9732bd	1.1812359
30	0x3f946cf1	1.1595746
31	0x3f9a0985	1.2034155
32	0x3f92600e	1.1435564
33	0xbf89948a	-1.0748456
34	0xbf74c5f8	-0.95614576
35	0xbfa1896b	-1.2620062
36	0x3f9440a2	1.1582224
37	0x3f8406e3	1.0314602
38	0x3f9158d8	1.1355238
39	0x3f843659	1.0329086
40	0xbf8ddffc	-1.108398
41	0xbfa2d943	-1.2722553
42	0xbf815c08	-1.0106211
43	0x3fa3b0c9	1.2788326
44	0xbf8b265b	-1.087108
45	0x3f6fd0c8	0.9367795
46	0xbf8bd640	-1.0924759
47	0xbf6abb0d	-0.91691667
48	0xbf8ab255	-1.0835673
49	0xbf914c88	-1.135148
50	0xbf9d2865	-1.2277952
51	0x3f72408a	0.9462973
52	0x3f7d77a9	0.9901071
53	0x3f911c54	1.133677
54	0xbf70aa06	-0.94009435
55	0x3f9d6f17	1.2299527
56	0xbf62319f	-0.88356966
57	0x3f9f0a92	1.2425101
58	0xbf8ea76c	-1.1144843
59	0x3f842920	1.032505
60	0x3f95bb9d	1.169788
61	0xbf457b3b	-0.7714116
62	0xbf833e1c	-1.0253329
63	0xbf6a7fd0	-0.91601276
64	0x3f94e153	1.1631263
65	0x3f9a4534	1.2052369
66	0x3f9bf880	1.2185211
67	0x3f99ecc3	1.2025379
68	0xbf8f5eeb	-1.1200842
69	0x3fa17da3	1.2616466
70	0xbf853fdf	-1.0410117
71	0xbf79f78d	-0.9764336
72	0x3f7f56ed	0.99742013
73	0xbf8457b3	-1.0339264
74	0x3f804cf8	1.0023489
75	0x3f82eb17	1.0227994
76	0xbf89206d	-1.071302
77	0x3f9c4156	1.2207439
78	0x3f6b7c05	0.91986114
79	0x3f803442	1.0015948
80	0x3f7d4ff2	0.9895011
81	0xbf89bdd5	-1.0761057
82	0x3f7004ea	0.937575
83	0xbf9aaffc	-1.2084956
84	0x3f8076f3	1.00363
85	0x3f8dd22b	1.1079763
86	0x3f8ff3a9	1.1246234
87	0xbf919fc2	-1.1376879
88	0x3f8cf5a4	1.1012464
89	0xbf667425	-0.9002097
90	0x3f963077	1.173354
91	0x3fa19250	1.2622776
92	0xbf91e151	-1.1396886
93	0xbf452c58	-0.7702079
94	0xbf9735c1	-1.1813279
95	0x3f80c5b4	1.0060334
96	0xbf386ece	-0.72044075
97	0x3f68ce21	0.9093953
98	0x3f636b4b	0.8883559
99	0xbf8a5bcc	-1.0809264
100	0xbf8c5f6a	-1.0966618
101	0x3f4950a3	0.78638667
102	0xbf81cdfb	-1.0140985
103	0xbf861cef	-1.047758
104	0x3f868580	1.0509491
105	0x3f9190c9	1.137231
106	0xbf8ebd78	-1.1151571
107	0x3f79ad44	0.9753001
108	0xbf939735	-1.153052
109	0xbf92d120	-1.147007
110	0x3f9ac76c	1.2092109
111	0x3f9ad59a	1.2096436
112	0xbdd84dbe	-0.10561703
113	0xbf55993c	-0.8343694
114	0xbf81c4e2	-1.0138209
115	0x3f8c794a	1.0974514
116	0xbf8b7db3	-1.0897735
117	0x3f7d3380	0.9890671
118	0x3f988c41	1.1917802
119	0xbf58f6a8	-0.8475137
120	0xbfa0214c	-1.2510161
121	0xbf931e3d	-1.1493603
122	0xbf90d4e7	-1.1314973
123	0x3f76295a	0.9615685
124	0x3f5a1789	0.8519216
125	0x3f7703e5	0.9649032
126	0xbf31e4cd	-0.6948975
127	0x3f9b8a66	1.2151611
128	0x3f9951be	1.1978071
129	0xbf56d0c4	-0.839123
130	0xbf838ffb	-1.0278314
131	0x3f883758	1.064189
132	0xbf9d62a2	-1.2295725
133	0x3f853052	1.0405371
134	0x3f7bafa4	0.9831488
135	0x3f991e72	1.1962416
136	0xbf99ebd4	-1.2025094
137	0xbf995fb6	-1.1982334
138	0x3f960668	1.1720705
139	0xbf9e00a2	-1.2343943
140	0x3f99a6c3	1.2004017
141	0xbe26e465	-0.16298063
142	0xbf8fdebc	-1.1239848
143	0x3f69832b	0.9121577
144	0x3f8bc170	1.0918407
145	0xbf9bd133	-1.2173218
146	0x3f832b97	1.0247678
147	0xbf95866c	-1.1681647
148	0x3f615816	0.88025033
149	0x3f95f381	1.1714936
150	0xbf9d505c	-1.2290149
151	0xbf93c811	-1.154543
152	0x3f89f863	1.0778927
153	0xbf8c9dd5	-1.0985667
154	0x3f8f2531	1.1183225
155	0xbf90b0e1	-1.1303979
156	0x3f9714a1	1.180317
157	0x3f909f44	1.1298604
158	0x3f93cd97	1.1547116
159	0xbf99979c	-1.1999393
160	0x3f8b6dc7	1.0892876
161	0xbf85d5ed	-1.045591
162	0xbf95405f	-1.166027
163	0xbf7ec5a5	-0.9952033
164	0xbf904748	-1.1271753
165	0xbf95e256	-1.1709697
166	0x3f98f291	1.1949025
167	0xbf88592c	-1.0652213
168	0x3f80fdfc	1.007751
169	0xbf55bb4f	-0.83488935
170	0x3f774776	0.96593416
171	0x3f8492ac	1.0357261
172	0xbfa07ae6	-1.2537506
173	0xbf9097d6	-1.1296337
174	0xbf8452a7	-1.0337723
175	0x3f55ed80	0.8356552
176	0xbf8aed73	-1.0853714
177	0x3f9312f7	1.1490163
178	0xbf9bf439	-1.2183906
179	0x3f83fa03	1.0310673
180	0xbf91b3de	-1.1383016
181	0x3f9e8a2a	1.2385914
182	0x3f778b73	0.9669716
183	0xbf8c3103	-1.0952457
184	0xbf978042	-1.1836016
185	0xbf8e3486	-1.1109779
186	0x3f82dab7	1.0222996
187	0x3f6d2be8	0.9264512
188	0xbf957680	-1.1676788
189	0x3f91692e	1.1360223
190	0x3f8e958f	1.1139392
191	0xbf9a83ed	-1.207151
192	0x3f965131	1.1743528
193	0xbf7aeb7e	-0.9801558
194	0xbf93148b	-1.1490644
195	0xbf88d9e4	-1.0691495
196	0xbf4296d8	-0.7601142
197	0x3f8dc6fe	1.1076353
198	0x3f9e6ec6	1.2377555
199	0x3f746a1b	0.95474404
200	0xbf9634b8	-1.1734838
201	0xbf1a9d07	-0.60395855
202	0xbf66e1c1	-0.90188223
203	0x3f81027a	1.0078881
204	0x3f8deba0	1.1087532
205	0xbf9d6fd0	-1.2299747
206	0x3f890dcc	1.0707335
207	0x3f853fd2	1.0410101
208	0xbf97819e	-1.1836431
209	0x3f9ef2f9	1.2417899
210	0x3f9befdc	1.2182574
211	0x3f9a8c5c	1.2074084
212	0xbf7a4917	-0.97767776
213	0xbf826e0d	-1.0189835
214	0xbf881b1d	-1.0633274
215	0xbf80fe12	-1.0077536
216	0x3f8f4d59	1.119548
217	0xbf98fb22	-1.195164
218	0xbf8fcaa2	-1.1233714
219	0xbf7c10cd	-0.98463136
220	0x3f8aa697	1.0832089
221	0x3f8a26c8	1.0793085
222	0x3f8c4ca3	1.0960888
223	0x3f94cd72	1.1625197
224	0xbf9ff868	-1.2497683
225	0xbf9dfb96	-1.2342403
226	0x3f910108	1.132844
227	0x3f90958e	1.129564
228	0xbf884d1d	-1.0648533
229	0xbf907d97	-1.1288327
230	0x3f821d55	1.0165201
231	0xbf8f02b3	-1.1172699
232	0x3f93b426	1.1539352
233	0x3f6f79f7	0.9354548
234	0xbf8c3709	-1.0954295
235	0x3f8c79ba	1.0974648
236	0x3f948b67	1.1605042
237	0x3f622bcf	0.88348097
238	0xbf95b626	-1.1696212
239	0xbf9585a8	-1.1681414
240	0x3f94a39e	1.1612432
241	0x3f9a7c35	1.2069155
242	0xbf8bcc3d	-1.0921704
243	0xbf9a1575	-1.2037798
244	0x3f68987f	0.9085769
245	0xbf9eaa3c	-1.2395701
246	0xbf8aa453	-1.0831398
247	0x3ecb9c7a	0.3976782
248	0x3f9fa6b7	1.2472752
249	0xbf760ebc	-0.9611623
250	0xbf989ddf	-1.1923178
251	0x3f93dc9a	1.1551697
252	0x3f98d3b1	1.1939603
253	0x3f8132df	1.009365
254	0xbf9f94ba	-1.2467263
255	0xbf8ded02	-1.1087954

conv_layers.1.att f4 [1, 1, 12]
0	0xbf64cceb	-0.8937518
1	0xbdd24504	-0.1026707
2	0xbe31152b	-0.17293231
3	0x3f25d2e0	0.64774895
4	0xbe75d495	-0.24006875
5	0xbea748a4	-0.32672608
6	0xbd05d97a	-0.032678105
7	0x3c80f738	0.015742883
8	0xbd5744a6	-0.052555703
9	0x3b647161	0.0034857618
10	0xbe30bb34	-0.17258912
11	0xbe1fe9e7	-0.1561657

conv_layers.1.bias f4 [6]
0	0x3f47ae9b	0.780008
1	0x3f1eb81b	0.6199967
2	0x3f4f5b73	0.80998915
3	0x3f63d6bf	0.8899955
4	0x3f2b8500	0.66999817
5	0x3f5c28d4	0.859998
