output/GCN/GCN_Cora/GCN_Cora_model.pkl (torch_old, 369837 bytes, 4 tensors)

conv_layers.0.weight f4 [1433, 64]
00000000: b712 583c dcc6 7fbd 975d bfbc e054 1abd
00000010: 3919 963d af21 b73c b661 04bd e081 063d
00000020: cee4 32bd 6384 a2bc fb87 9d3d 4a89 b13d
00000030: 91f6 ce3c 7c35 4f3d 83bd 46bc f314 9f3d
00000040: 9ec6 233c f627 a8bd c9fd fa3c 5cea adbd
00000050: 788c 91bd 2152 553d a620 b9bd f14b 9a3d
00000060: f68b 0ebc 645c bbbc 98e5 f93d 9e42 943a
00000070: d113 023c 0836 bd3d 8f26 a9bd 03bc f53c
00000080: b89d 6b3d 1b4d 83bc c06c 95b8 7f10 803d
00000090: 9ebe 0d3d f9f2 a6bc 2add eabc 0f9f 82bd
000000a0: ea93 d13c c3f2 a5bd 47ae 94bc 4078 48bd
000000b0: 4142 dd3d d8b7 f83c a22b 8cbd 2e09 023c
000000c0: 8dbd 3f3c 760f 7d3c 06b6 1a3d 8179 243c
000000d0: 80f1 80bd 931d ba3d 1365 cdbb 96b8 3f3d
000000e0: 91ec 223d 3251 35bd 753e 9cbd 41ea 39bb
000000f0: a078 123d 8a76 523d 0f3e ddbc 9d4e cf37
00000100: 6b18 08be 7686 ab3e 81c7 9fbc 9325 06be
00000110: 3af7 54bd 7948 da3d a2e7 69be 112e fcbd
00000120: 129a 0e3d fa39 49bd bb4c f63d 43bb e0ba
00000130: f047 d63c b78c 97bd 4f60 343d 4a71 32bd
00000140: 7231 ce3e 8c8d 8cbd 6183 893e fa47 9ebd
00000150: a9c3 9b3d 8b30 263d 3336 853e e676 5d3e
00000160: 1326 303e 8417 66be 4cd3 9e3d d730 313d
00000170: 335a 2abc e68b 82bd 1663 8ebd 9ab3 573e
00000180: d590 ffbd ae73 5abd 5d04 71bd 135e 15bd
00000190: 9946 4b3e 8fb5 2ebd 69aa 623e 0df0 10bd
000001a0: 7fb6 58bd b77a c1bd 3922 16bd 89fb ddbd
000001b0: a62e d8be 16b8 b83d b1c2 a03d dced 22bb
000001c0: af92 e43d 4aa1 253e 6024 033c b3c8 4c3d
000001d0: bd04 debd 0f24 333c fcf7 913e bdd6 10be
000001e0: 847c 093e 2f34 f5bb 59ff 90bc 28be 63bd
000001f0: c61e 92bd 7cb9 8d3d 9154 9dbd e881 983e
00000200: 00de 8f3b ced7 173d e2b5 083e ed0e 92bd
00000210: f38a 4b3e 833c 5abc 1aac 813e b383 0f3d
00000220: 5750 0fbe 80a2 13bd 05c2 7b3c 02f4 f53c
00000230: 3b84 0dbb 0b50 ce3d e271 9a3d 85d4 c13d
00000240: a6a0 0f3e 8744 bebd 5155 cd3d 8132 6cbd
00000250: 22a9 26be 8754 68bd 72d5 eabd e525 303e
00000260: 2e76 3dbe 5ad3 f23d d006 16bd 52e0 aabd
00000270: fa5a e3bd b75b ddbc d23a 0a3d cb29 2dbe
00000280: 0157 e6bd 9af9 aa3d 120b a3bc bb5d c1bd
00000290: 9771 543d d9ab 373b e817 873d 85c7 a3ba
000002a0: b337 07be 6e9d a0bc 3967 a23d 3ea9 ee3d
000002b0: cd40 3a3e 8603 6e3d af64 2d3d 40be 193d
000002c0: d679 90bd df73 0a3d 6aee 723a 84cc 6ebc
000002d0: e4a4 363d 74cd 5d3e 4bc7 8f3e c698 393e
000002e0: ef8d ed3d a83a 39bc 2983 e4bc c3f1 b73d
000002f0: 0bbc 503c 196a 6dbc 5d1c 42be 57b8 0d3e
00000300: 7fa1 cc3d 07af 893d b521 003d 8777 aabd
00000310: bbd1 2f3d 438e 06bc a763 18be 4b87 27be
00000320: bf88 6fbd 8b5b 28bc 3d59 ecbd 8071 1d3d
00000330: 05c1 b93d 2807 39be e787 c5bc 41be a1bd
00000340: c11e 09be 3530 2f3d 57f3 b0bd 1ce8 0ebe
00000350: 3e9f f0bd bbeb eebb ccff da3c cfa9 a73c
00000360: 31b8 6a3e 58f3 463d 5355 43be ad05 f7bd
00000370: 101a 353e 77f9 da3e af5b d23d 11d8 933d
00000380: edb7 76be 7b66 0fbb a4c2 f6bb 57a1 27be
00000390: 7c1a 8b3d 68af c2bc c39e aebe 1c1e 8e3d
000003a0: c542 51bd c3f1 80bd f724 e63d 3e7e 84bc
000003b0: bd32 4e3e 1999 8f3d 4e70 46bd 6704 e4bb
000003c0: e683 343d b295 263e 7ba3 fe37 2866 a23d
000003d0: 4ed8 4f3d 1828 6a3d d7f3 30be 2bae c43c
000003e0: f3a5 2bbc b934 c9bd 868b 283c 1e9c aa3d
000003f0: 9b81 33be bb46 22bc f7b4 2bbd 0b96 1c3d
0.013188056 -0.062445506 -0.023360057 -0.0376786 0.073290296 0.022354929 -0.032319747 0.032838702
-0.043675236 -0.019838518 0.07691952 0.08668764 0.025264056 0.050588116 -0.012130144 0.077676676
0.0099960845 -0.08210747 0.030638592 -0.08491966 -0.071068704 0.052080277 -0.0903943 0.07534016
-0.0087003615 -0.022871204 0.12201995 0.0011311357 0.007939295 0.09238821 -0.082593076 0.029996878
0.05752346 -0.016027978 -7.12513e-05 0.062531464 0.034605615 -0.02037953 -0.028669912 -0.06377994
0.025583226 -0.08102944 -0.018149508 -0.048942804 0.108036526 0.030361101 -0.0684426 0.007936759
0.011702907 0.015445581 0.037771247 0.010038734 -0.062960625 0.09087672 -0.0062681525 0.046806894
0.03977639 -0.044266887 -0.076291 -0.0028368386 0.03575957 0.05138258 -0.02700713 2.471293e-05
-0.13290565 0.33501023 -0.01950431 -0.13100271 -0.051993586 0.10658354 -0.22842267 -0.12313474
0.0348149 -0.049127556 0.12026354 -0.0017145652 0.02615735 -0.07399886 0.04403716 -0.043565072
0.402721 -0.068629354 0.26858047 -0.07728572 0.076056786 0.040573638 0.26017913 0.21627387
0.17202024 -0.22469908 0.077551454 0.043259468 -0.010397482 -0.0637434 -0.06952493 0.21064606
-0.124787964 -0.053332977 -0.05884205 -0.03646667 0.1985115 -0.042653617 0.22135319 -0.03538518
-0.052908417 -0.09447234 -0.03665373 -0.10838992 -0.4222309 0.090194866 0.078496344 -0.0024861014
0.1116079 0.16174808 0.008004278 0.04999609 -0.108407475 0.01093389 0.2850951 -0.14144416
0.13426405 -0.0074830274 -0.017699884 -0.05560127 -0.07134776 0.06920144 -0.076821454 0.2978661
0.004390478 0.03707104 0.13350633 -0.07131753 0.19877224 -0.013320091 0.25326616 0.035037708
-0.13995491 -0.036043644 0.015366082 0.030023579 -0.0021593708 0.10073861 0.07541253 0.09464363
0.14026126 -0.09290414 0.100260384 -0.05766535 -0.16275457 -0.056721237 -0.11466493 0.17201956
-0.18502113 0.11856718 -0.03662759 -0.08343567 -0.11101337 -0.027021272 0.0337475 -0.16910474
-0.112470634 0.08348389 -0.01990274 -0.09441706 0.05186614 0.0028026013 0.06596357 -0.0012495375
-0.13204841 -0.019606318 0.079298444 0.11653374 0.18188782 0.05810883 0.042332347 0.037534952
-0.07054488 0.03380191 0.0009267094 -0.0145751275 0.044590846 0.21660405 0.28081736 0.18124685
0.11599337 -0.011305489 -0.027894573 0.08981659 0.012740145 -0.014490628 -0.18956132 0.13839851
0.099917404 0.06722837 0.031282146 -0.08323579 0.042924624 -0.008212629 -0.14881764 -0.16360204
-0.05848002 -0.010275732 -0.11540458 0.03843832 0.09070019 -0.18069136 -0.024112655 -0.07897616
-0.13390638 0.042770583 -0.086401634 -0.1395573 -0.11749123 -0.007291285 0.026733302 0.020466713
0.22921826 0.048571914 -0.19075517 -0.120616294 0.17685723 0.42768452 0.102713935 0.07218946
-0.240936 -0.0021881151 -0.007530527 -0.1637014 0.06792161 -0.02376528 -0.341055 0.06939337
-0.051089067 -0.062961124 0.11237519 -0.016173478 0.20136543 0.07011623 -0.048446946 -0.0069585326
0.0440711 0.16268042 3.0355286e-05 0.07929641 0.050743394 0.057167143 -0.17280518 0.024008831
-0.010476577 -0.09824509 0.010287171 0.08330558 -0.1752991 -0.009904559 -0.04192063 0.03822903

conv_layers.0.bias f4 [64]
00000000: f9d5 233e a462 0f3e d39e 233e 90cc 98b8
00000010: ffd1 a33d 7284 1f3d 15c9 cc3d 819d a33c
00000020: de52 0f3e d2b7 233d c7ea 233d 8cdb 0e3e
00000030: 68a2 75be 7a3f 793d 5545 383e 581f 853e
00000040: 1cf5 233d 945c 0f3e 85b5 233d c1d3 a33d
00000050: d4c7 cc3d e350 b8be 7dac 233d 02bd f53d
00000060: 07c0 f53d 04ed a33d 34e5 233d 6ac7 753d
00000070: 99f2 a33d b6de 233d 7260 383e aab8 c23d
00000080: 5dd4 233e 0ebc 9a35 bfd9 cc3d d1b6 f53d
00000090: 7d75 a33c 3049 0f3e 6fdd f53d dc90 903e
000000a0: a65a 383e b7b8 a33d 57dc 233d 4eda a33d
000000b0: c84d 383e 2f83 a43d e7d3 a33c ec38 61be
000000c0: 18b8 bd3c cce8 a33c a2c6 ccbe acc2 f53d
000000d0: 1d38 853e e7c2 cc3d 3c5c 0f3e 0fdb cc3d
000000e0: 87d0 cc3d d5d6 75be a1d1 753d 5dd5 23bd
000000f0: 125f a43c 8153 753d f1c3 f53d d9c7 23bd
0.15999593 0.14002472 0.15978555 -7.2860275e-05 0.07999038 0.03894467 0.09999291 0.019972565
0.13996455 0.039970227 0.040018823 0.13950938 -0.23987734 0.06085155 0.17995198 0.26000476
0.040028676 0.1400016 0.039968032 0.07999373 0.09999052 -0.35999212 0.03995942 0.11998941
0.11999517 0.080041915 0.040013507 0.06000463 0.08005256 0.040007316 0.18005541 0.09507878
0.15998979 1.1528625e-06 0.10002469 0.1199776 0.019953484 0.13992763 0.12005126 0.2823552
0.1800333 0.07994216 0.040005054 0.08000623 0.17998421 0.08032834 0.019998504 -0.2199437
0.023159072 0.020008467 -0.39995295 0.12000021 0.26019374 0.09998112 0.14000028 0.100027196
0.10000711 -0.24007733 0.06001437 -0.0399984 0.020064864 0.05989409 0.120002635 -0.03998551

conv_layers.1.weight f4 [64, 7]
00000000: 9a81 0ac0 dc41 07c0 1cca 0040 73d0 0ac0
00000010: 59bd 07c0 f766 0bc0 2188 ff3f 83c9 0ac0
00000020: 2266 0840 fe83 0540 ac34 02c0 da0b 0dc0
00000030: ef59 0f40 bcb6 0240 3ca0 af3f b8bc 92bd
00000040: e465 65be d3dd 79bf ae6e 093f fab0 a5bf
00000050: 6e94 683e 01f1 0640 1d34 c6bf 4c20 0cc0
00000060: 754f e8be 1628 06c0 012d 0a40 066e febf
00000070: bf9e f6bf 302e 1140 742e 0640 5938 04c0
00000080: 45b6 0340 5282 523d 8db3 08c0 effa f4bf
00000090: 4b97 0d40 e8c7 0f40 fd2d edbf 30d5 00c0
000000a0: b6a6 0340 eb04 05c0 0bc5 f93f d6fe 0b40
000000b0: 611b 0fc0 97ec 0cc0 40ef 0340 9c69 01c0
000000c0: df8d 03c0 1d4e 0940 b7dd 0ac0 ad19 0dc0
000000d0: 51bf 03c0 ac19 0bc0 02b5 1140 4376 f93f
000000e0: 844a 06c0 a951 fabf 3b6f f6bf d5e9 f33f
000000f0: 6895 03c0 eb8d 0a40 9e44 0d40 90a1 36be
00000100: 95ad 0dbe 987c 12be e935 003f d450 74bd
00000110: 9c34 3cbe 5aa4 883e 88e2 0ac0 4206 04c0
00000120: ccf1 06c0 de31 0ec0 e0bc 0840 f1ba 0440
00000130: 40c1 01c0 f1e0 503f 1047 dc3e b2bd 18bf
00000140: 32e3 96bd d6cd 08bd 49cb 67bf 8c45 0f3f
00000150: a8e3 9dbd 361b e93d 9b38 a9be 62a6 52be
00000160: 5ade a43e 2200 c83c bafc 923e 443a c93f
00000170: 13b4 abbf e61f 52bf bd18 c8bf 95dc ae3f
00000180: b4da ab3f 1459 bfbf f973 abbf add3 b2bf
00000190: c45a e3bf 166e ef3f d7d9 fe3f 3c66 eebf
000001a0: 5805 eebf a989 0340 8464 05c0 7441 0440
000001b0: fa8e 0fc0 8d57 0a40 3ba1 0c40 9edb e23f
000001c0: 5922 0ec0 2600 0b40 5223 0440 c223 01c0
000001d0: d731 06c0 979a 0740 6751 0d40 dee2 9a3f
000001e0: d8ca 0ac0 1ffa c3bf a60a 0440 0edf 0e40
000001f0: cd9c 0ac0 d53a 0840 8da7 07c0 69e3 0340
00000200: 213e fe3f 1b22 00c0 e175 06c0 d919 ef3f
00000210: 9403 0ac0 0606 01c0 260c 0440 00ba 0f40
00000220: 90d3 05c0 44ef 0240 b6e0 0e40 2afa fabf
00000230: b5fa 0fc0 2ade 09c0 549b 06c0 6de5 0a40
00000240: 312e afbf ae8b 0c40 6836 05c0 5ee4 20bd
00000250: 5dab f13b c88b 18be c923 d63d d504 213e
00000260: 4f67 ab3d 6030 283d 9f9c 04c0 81b8 0ac0
00000270: 507d 07c0 412a 0640 27b8 fa3f 73a4 0240
00000280: 7372 0140 1b27 07c0 fb1c 0b40 136c f93f
00000290: 1e86 08c0 2dd0 0dc0 a5dd 0dc0 cad4 0b40
000002a0: c74a 08c0 4e0d 0b40 1dde 0ec0 1fb4 1140
000002b0: ab35 0fc0 8a6a 0440 e636 0440 d49f ff3f
000002c0: e154 0c40 7ec7 0540 a6fd ffbf 04eb 09c0
000002d0: 1df9 4e3e 3e76 0cc0 d85a 0140 a325 0940
000002e0: 8cde 00c0 a08a 1240 ceeb 06c0 c0dc 0340
000002f0: 095f 09c0 1f7a 02c0 6f36 dbbf 1786 0940
00000300: 0d92 0f40 0717 0cc0 2378 fc3f 8fd1 0bc0
00000310: ee25 0d40 1eb6 02c0 8cc8 f9bf 3c2b 0e40
00000320: ddca 0440 91f1 05c0 0304 0f40 b545 0940
00000330: f567 09c0 2c81 10c0 1cc4 0fc0 25eb 0bc0
00000340: e7f3 0fc0 6629 0440 9db4 b73f 9d77 ca3f
00000350: f725 82bf b7d1 083f 892d 9fbe 9ea2 b8bf
00000360: 5f26 46bf fff0 08c0 425f 0ac0 603d 0cc0
00000370: 8152 1040 6df3 ec3f 9f75 09c0 9fce 0a40
00000380: 946e fc3f 6fb1 0840 0404 10c0 807a 0d40
00000390: 2b05 0cc0 e731 0840 fad3 09c0 3366 fc3f
000003a0: 8440 0740 e142 08c0 f7e8 0640 6c64 0dc0
000003b0: f8e1 08c0 7624 0dc0 7ced ecbf a2b3 06c0
000003c0: 1069 0e40 4f93 0dc0 6b2b 0140 8c85 9bbf
000003d0: 9186 0a40 9162 0dc0 43be 00c0 d970 8fbf
000003e0: 2893 0540 f6fb 0940 464d ffbf b4f3 01c0
000003f0: 145d babf c683 0840 d052 0cc0 79d1 05c0
-2.1641603 -2.1133947 2.0123358 -2.1689727 -2.1209319 -2.1781595 1.9963418 -2.1685493
2.1312337 2.0861812 -2.0344648 -2.2038484 2.239864 2.0424032 1.3720775 -0.071649015
-0.2240215 -0.976041 0.5368451 -1.2944634 0.22712871 2.1084597 -1.5484654 -2.1894712
-0.4537312 -2.0961967 2.1589968 -1.9877326 -1.9267195 2.268444 2.0965853 -2.0659392
2.0579998 0.051393814 -2.135959 -1.9139079 2.2123592 2.2465763 -1.852966 -2.013012
2.0570502 -2.0784252 1.9513258 2.187429 -2.236046 -2.2019403 2.0614777 -2.022071
-2.0555341 2.1453927 -2.1697824 -2.2046921 -2.058552 -2.173442 2.2766728 1.9489216
-2.098298 -1.9556171 -1.9252695 1.9055735 -2.055994 2.164912 2.207313 -0.17835069
-0.13835748 -0.14305341 0.5008226 -0.059647396 -0.18379444 0.2668789 -2.1700764 -2.062882
-2.108508 -2.2217937 2.136528 2.07391 -2.02742 0.81593233 0.43022966 -0.5966445
-0.07367553 -0.033399425 -0.90544564 0.55965495 -0.077094376 0.11382143 -0.33051 -0.20571283
0.3220089 0.024414126 0.2870844 1.5720906 -1.3414329 -0.82079923 -1.563255 1.3661066
1.3426118 -1.494906 -1.3394767 -1.3970848 -1.7762074 1.870547 1.991023 -1.862495
-1.8595381 2.055277 -2.08426 2.066495 -2.2431016 2.1615937 2.1973407 1.7723272
-2.2208464 2.171884 2.0646558 -2.0178075 -2.096792 2.1188104 2.2080934 1.2100484
-2.1686306 -1.5310706 2.06315 2.2323642 -2.1658204 2.1285908 -2.1196015 2.060755
1.986271 -2.0020816 -2.1009448 1.8679763 -2.1564684 -2.0159926 2.0632415 2.2457275
-2.0910378 2.0458536 2.2324653 -1.9607594 -2.249677 -2.1541848 -2.1032305 2.170253
-1.3685971 2.1960254 -2.0814457 -0.039280288 0.0073751644 -0.14897072 0.10456044 0.157245
0.08369314 0.04106176 -2.0720594 -2.1675112 -2.1170235 2.096329 1.9587449 2.0412872
2.0226104 -2.1117618 2.1736438 1.9486107 -2.1331859 -2.215831 -2.216653 2.1848626
-2.129564 2.172687 -2.2323067 2.2766187 -2.2376506 2.0690026 2.0658507 1.9970651
2.1926806 2.090301 -1.9999282 -2.1549692 0.20212217 -2.194717 2.0211697 2.1429222
-2.0135832 2.289711 -2.1081424 2.0603485 -2.1464255 -2.0387037 -1.7125987 2.1488092
2.2432892 -2.1889055 1.9724163 -2.1846654 2.20544 -2.0423656 -1.9514327 2.2213888
2.0748818 -2.092869 2.2346199 2.1448796 -2.14697 -2.257884 -2.2463446 -2.186227
-2.2492616 2.0650268 1.4351994 1.5817753 -1.0167836 0.53445 -0.31089428 -1.4424627
-0.774023 -2.1397092 -2.162064 -2.191246 2.2550356 1.8511788 -2.147804 2.1688612
1.9721246 2.1358297 -2.250245 2.2106018 -2.1878154 2.1280458 -2.153563 1.9718689
2.1133127 -2.129082 2.107969 -2.2092543 -2.138792 -2.2053504 -1.8509974 -2.104714
2.2251625 -2.212116 2.018275 -1.215013 2.1644633 -2.209141 -2.0116127 -1.1206313
2.0871067 2.1560035 -1.9945457 -2.0304995 -1.4559655 2.1330428 -2.1925545 -2.0909102

conv_layers.1.bias f4 [7]
00000000: 91a4 70bf a0ff ffbf 02ff ff3f f45a 8f3e
00000010: 9496 99be 8ba5 c2be 33f8 ffbf
-0.9400111 -1.9999886 1.9999697 0.2799908 -0.29997694 -0.38016924 -1.9997619
