output/GCN/GCN_CiteSeer/GCN_CiteSeer_model.pkl (torch_old, 950697 bytes, 4 tensors)

conv_layers.0.weight f4 [3703, 64]
00000000: 1856 87bc 3a6a 233d a937 75bd f4c8 793e
00000010: 84bd 093e def9 6e3d aec0 183e c1ac 083e
00000020: 165c 343e 814a 0dbc 80b1 b9bd 02e1 c73c
00000030: 44eb 863d 2c83 95bc 2bb0 51be c053 3cbd
00000040: 4314 6d3d 81cd 83bd 6ec9 df3c dcef cabd
00000050: d6ce 923c 2054 f03c 12ad 38be 5614 66bd
00000060: fe1c cabd 0e3b a7bd 52be 9d3d 30b0 773e
00000070: f7e1 803d 0641 38be 6eab f73d aeef 60bd
00000080: 8806 f9bd 4f90 32bd 7cfb d43d 44e5 8bbe
00000090: 6635 29be 36a3 2ebd bdf3 a43d 0dc8 db3d
000000a0: c8be 9bbd 4e0e 78bd 5fb4 853b 4b8a 65bd
000000b0: a111 0ebe 5b6d 8f3e 8dde 673d acee cf3c
000000c0: 948b 54be 8a9b debd b787 00bc 4d19 053d
000000d0: 6498 3c3c bfc3 20be c14e b7bd f1d7 afbd
000000e0: e623 3f3e ec22 62bd 2e1d a03d 2ec0 7f3e
000000f0: 688e 3e3e 0e75 f3bb d538 af3c 1add 79be
00000100: ad38 643e ab6c 8d3c 173c 08be 2678 3a3e
00000110: 0ef3 46be 91be 383d b3a9 043f 8deb a03e
00000120: f44f d7bd e61e 88bd ca1e dbbd 07dc 02bc
00000130: 226e efbb 39f0 f43c 122f c03d aed8 823d
00000140: fd8b 363d ae4f 183d daaa bdbd b01f 1ebe
00000150: 2428 493e fbf4 d33d fb4a edbd e171 123f
00000160: 162c ad3d 26d3 5bbe ea27 a13d a77e df3e
00000170: 1d3b bcbd 18fa 603c 84db ca3c 7141 873c
00000180: 8551 1d3e e591 473c 03c9 57be f140 63bd
00000190: 33cc 45bd e5ac 893e 3954 c23d 86ca e93e
000001a0: 62aa 243e e150 be3c 0af3 8b3d b7d8 d9be
000001b0: c375 ceb9 5733 613b 202a ceb9 5356 c3bc
000001c0: 583a 18bd be89 18bd 36c8 99be 76bc 463d
000001d0: 9dce 753e 64ab 0cbe c72d 8f3d d95d 52bd
000001e0: ca7e c6ba fa4e a8be 2e89 db3c a2f4 013e
000001f0: 0fbc 0d3e e8d9 f8bc 2b93 483c 878e b03e
00000200: 3c8b 163d ffee d1bc dbe9 973c 4f11 343a
00000210: 1612 b3bb dbd0 b7bc bf8a 1f3d 3497 73bc
00000220: 6c90 713b 39e8 c23d 9328 0d3b 99b8 c2bc
00000230: 8007 243d 86f5 efbb 6b22 89bc 89a6 9ebc
00000240: 9a3e 74bc 10b6 bdbc c920 8b3c 0a1a 9ebc
00000250: 4b29 0abd c1d3 4fbd e86b 983c a8a6 2f39
00000260: 441e 09bd 7e59 85bc 6443 04bd 2ecb b83b
00000270: 1ad7 ffbc 77f1 adbb 7f04 5b3d d497 b6bc
00000280: 5241 27bd afa4 38bd a4b0 a23b 0968 aebd
00000290: f04c 82bd a69a 023d 692e 923b a4e8 fa3b
000002a0: 115a 843c 60ca 2d3c 6776 5d3d 7fd0 823c
000002b0: 9d6d 82bc af31 f2bc a893 ba3c 5868 35bd
000002c0: ca5e 92bb 7d51 3ebd f1aa cebc c1ce 03bd
000002d0: 38bd 0dbd 56d7 21bd b856 20bd af98 9ebc
000002e0: beac 203d 9773 3fbd e830 8abd b550 14bb
000002f0: 86e6 b93c d298 08bd f1cd b93c 51da de3c
00000300: 1cdd 513b 97ab c33a f2a5 c6bd 3deb 823a
00000310: f7d5 95bd 6101 87bd b147 db3c 9523 763d
00000320: 9786 9f3c c51e 183d 145d aa3c d651 93bc
00000330: afc1 d1bb c2dc 49bd a2b5 1dbc 0d12 5fbd
00000340: 70dc 3c3d f930 0dbd d9c8 55bd a260 05be
00000350: d58c 303d 6bdf a93d 75ca 8a3d 61c8 9bbb
00000360: 2d84 e23c af9b 1d3c d1c6 613b 5622 8bbc
00000370: 309d 2dbb 17fc b73d f133 43bd 1b1f 0e3d
00000380: 7ad5 cf3c 95d9 483c 81fb aebc 6b0b 90bc
00000390: a0bf 393d 38bd 603d bce3 5e3d e277 473c
000003a0: e313 81bd 4c5a d3bc 28c3 353d e0ef ccbb
000003b0: 06a3 ce3d 36fc 203c 3f42 52bd f691 833d
000003c0: c054 68bd 5e9d 96bd 2780 afbd 973c 2a3d
000003d0: f16b 813d f167 6c3d 1704 83bc 3c95 203d
000003e0: eba8 653d 881f 883c 5b9a ec3b 8161 a2bc
000003f0: a487 2a3d 3510 2dbd c4b0 e63c 5679 f33b
-0.016520545 0.039896227 -0.059867535 0.24393064 0.134512 0.05834376 0.14917251 0.1334715
0.17613253 -0.00862372 -0.090670586 0.024399284 0.06587842 -0.018251024 -0.20477359 -0.045978308
0.05788065 -0.06435681 0.027317729 -0.09909031 0.017920893 0.029336989 -0.18034771 -0.056171738
-0.09868811 -0.08165561 0.07702316 0.24188304 0.062930994 -0.17993554 0.120932445 -0.054916076
-0.12159449 -0.043594655 0.10399529 -0.27323353 -0.16524276 -0.04263612 0.08054302 0.10731516
-0.07604748 -0.060560517 0.00408034 -0.05604009 -0.13873912 0.2801312 0.056608725 0.025382362
-0.2075637 -0.108695105 -0.007844857 0.03249483 0.011510942 -0.15699671 -0.08950568 -0.085861094
0.18666038 -0.055209085 0.078180656 0.24975654 0.18609011 -0.0074297255 0.021389404 -0.2440075
0.22287245 0.017263731 -0.13304172 0.18209895 -0.19428656 0.045103613 0.5182144 0.3142971
-0.10513297 -0.066465184 -0.10699232 -0.007987029 -0.00730683 0.029899703 0.09383978 0.063889846
0.044567097 0.037185363 -0.09261103 -0.15441775 0.19644219 0.10349461 -0.11586567 0.57205015
0.08455674 -0.21467265 0.07868941 0.43651316 -0.091909625 0.013731502 0.024762876 0.016510697
0.15363128 0.01218078 -0.21072774 -0.055481855 -0.048290443 0.2688972 0.094887204 0.45662326
0.16080621 0.023231925 0.068334654 -0.42548153 -0.0003937912 0.0034362876 -0.00039322767 -0.023844874
-0.037165016 -0.037240736 -0.3003556 0.048519574 0.24004598 -0.13737255 0.06991153 -0.05135903
-0.0015143987 -0.32872754 0.02679881 0.12690976 0.1384127 -0.030377343 0.012242119 0.3448374
0.036753878 -0.025626658 0.018544128 0.0006869034 -0.0054648025 -0.022438457 0.038950678 -0.014867593
0.0036859764 0.09516949 0.0021539077 -0.023769664 0.040046215 -0.00732297 -0.016740045 -0.01936652
-0.0149075035 -0.023158103 0.016983407 -0.019299526 -0.033730786 -0.050739054 0.018606141 0.00016751385
-0.03347613 -0.016278025 -0.03229083 0.0056394553 -0.031230498 -0.005308326 0.053471085 -0.022289194
-0.04083378 -0.04507893 0.004964905 -0.08515937 -0.06362331 0.031885765 0.004461099 0.0076571275
0.016156228 0.010607332 0.054067995 0.01596856 -0.015921408 -0.029564707 0.022775486 -0.044288963
-0.004466866 -0.046464432 -0.025227996 -0.032179598 -0.03460428 -0.039512 -0.0391452 -0.019359915
0.03922724 -0.046741094 -0.067476094 -0.0022631113 0.02269293 -0.033348866 0.022681208 0.02720371
0.003202266 0.0014928457 -0.0969962 0.0009988319 -0.07316201 -0.0659206 0.026767584 0.060092527
0.019473357 0.03713872 0.020796336 -0.017983358 -0.0064012627 -0.049282797 -0.009625824 -0.054460574
0.046108663 -0.034470532 -0.052193496 -0.13025144 0.043103058 0.08294567 0.06776897 -0.0047541116
0.027650917 0.009619637 0.003445078 -0.016984146 -0.0026491396 0.08983629 -0.047656957 0.034697633
0.025370348 0.012258907 -0.02136016 -0.01758357 0.045348763 0.054867953 0.054416403 0.012174578
-0.06302621 -0.025799893 0.04437557 -0.0062541813 0.10089688 0.009825757 -0.05133271 0.06424324
-0.05672145 -0.07354234 -0.08569365 0.04156169 0.06319416 0.057716314 -0.015993161 0.03920482
0.056069296 0.016616598 0.007220549 -0.019821884 0.041633263 -0.042251784 0.02816046 0.007430236

conv_layers.0.bias f4 [64]
00000000: 2dcb 753d eb82 75bd d65e 0f3e b2c7 cc3d
00000010: b359 0f3e 2f55 0f3e 5de6 32b7 1bbc 753d
00000020: 60e0 233d 88c3 cc3d dad4 a33d 0150 cd3d
00000030: 85dc 22be 956b 0fbe 01ba cc3d 1ea5 a33c
00000040: 2d94 753d 7cd6 233e 140e aebe c002 a43c
00000050: 08cd a33d 6cd2 233e 74b4 a33c 2ad4 a33d
00000060: 57ca cc3d 0f3f a43c 74bb f53d 64d5 233d
00000070: ccba f53d 77d4 a33d f8e2 a33d b952 a33d
00000080: b9c3 a33d 15f3 a33c a7b5 233d cb2c 773d
00000090: eef4 233d fae8 f53d 05c5 a33c 7aca cc3d
000000a0: 4bd7 a33d 7a4d b8be f75d 0f3e a8d4 233d
000000b0: 21c4 f53d 085c 0f3e b9c4 ffbe 8ace 233d
000000c0: cfa4 a33c 2a5e 0f3e f9bd f53d 14e5 753d
000000d0: 3ad3 a33d d5d4 a33d fbbd 753d 6f7d 24bd
000000e0: 7c47 243d f3e2 a33d 7298 19bf d5cd f53d
000000f0: fcd3 a33d f2c8 f5bd 71c1 4cbe 23bf 233d
0.060008217 -0.059939306 0.14001021 0.09999026 0.13999061 0.13997339 -1.0663262e-05 0.059993844
0.040008903 0.09998232 0.079995826 0.10025025 -0.15904434 -0.14005883 0.09996415 0.019976195
0.059955765 0.15999788 -0.33995116 0.020020843 0.07998091 0.15998238 0.019983508 0.079994515
0.09999531 0.0200496 0.119986445 0.039998427 0.11998519 0.07999509 0.08002275 0.079747625
0.079963155 0.020013371 0.03996816 0.060345452 0.040028505 0.120073274 0.019991407 0.09999557
0.08000048 -0.3599661 0.14000688 0.039997727 0.12000299 0.13999951 -0.49954775 0.039991893
0.019976048 0.14000764 0.11999125 0.06003292 0.07999273 0.07999579 0.059995633 -0.040158685
0.040107235 0.080022715 -0.5999824 0.1200215 0.07999417 -0.12001218 -0.19995667 0.039977204

conv_layers.1.weight f4 [64, 6]
00000000: a299 0340 3ec9 02c0 a7b7 04c0 9adb fcbf
00000010: 81cd 1040 eb37 fa3f dc39 8fbe dec3 923e
00000020: 91b6 aabb 4ad7 023e 1c2e e3bd 4eda edbd
00000030: d8ae 02c0 5717 0440 a92a 0340 5ab3 e63f
00000040: c3ac 0dc0 3bc1 10c0 05d2 1040 0c0c 0440
00000050: b325 08c0 e8de 0ac0 4f5d 0140 325e 06c0
00000060: 92f5 07c0 e9f2 09c0 3536 fcbf c57d 0940
00000070: 4e5c 0d40 b97a 0740 6da6 4abf 1977 7b3f
00000080: 193d aebf 24c8 9f3f 65b7 d3bd aa55 413f
00000090: d3b2 0c40 6e71 09c0 9be2 0fc0 5fc4 03c0
000000a0: 8ce2 fa3f f69f 09c0 cfcc 0040 1720 03c0
000000b0: ffb0 0ec0 2659 0040 e9e7 0440 0988 06c0
000000c0: 26be 0840 caa4 e2bf c208 1140 fdc5 fdbf
000000d0: c778 fa3f 3ce3 06c0 8923 f7bf 3956 0540
000000e0: b415 0140 cb5b 0c40 0463 0dc0 3665 fcbf
000000f0: b3d1 0fc0 98f0 0bc0 f310 e03f c86f 04c0
00000100: 0525 0040 82eb 0540 86d2 0cc0 2bed f33f
00000110: 7720 ccbf c05e 0140 302e 06c0 8099 0dc0
00000120: 4e23 41be 3b77 0d3f 79ea 49bf 47b6 d93e
00000130: 4cd5 983e 11fd afbe 44f4 d23d afee d23d
00000140: e4e0 0a3e fe85 82be ba65 c1bc 3162 90bd
00000150: a6f6 a13f 950a ee3f 7225 f5bf 2acf 0440
00000160: 2217 fbbf 8291 efbf ddd7 0b40 e058 0cc0
00000170: 884b 03c0 8759 eebf e441 1140 0f28 0940
00000180: f049 babe 2bb1 8b3e bcc6 4ebf 5680 b13e
00000190: b1a4 2e3e dbb2 a63d 4b3d 07c0 c4ac ffbf
000001a0: 769b 0440 910f 0840 593a 0640 88cd 05c0
000001b0: 99ed e43e 5ad5 ff3d 6c43 5d3e b0f7 5d3e
000001c0: c2bc fb3c 1447 02bf cc22 0240 8585 07c0
000001d0: fade 0040 8bda 0cc0 a015 0ac0 110c 1040
000001e0: 2209 f83f 1b1b 0e40 9a8f f93f 1bbd 02c0
000001f0: 921d 0ec0 c327 0bc0 cbba 0840 24ca 0a40
00000200: f12e 0440 1313 0bc0 929d 01c0 40a0 00c0
00000210: 9395 fc3f 9aac 0dc0 f659 0240 43c9 ec3f
00000220: e376 0bc0 7687 04c0 c4a8 0640 a6a7 0040
00000230: 0396 fabf dffe 10c0 0cb7 0740 39da 09c0
00000240: 3091 08c0 207e 0540 82b2 0440 d69a 0ec0
00000250: 4c89 0fc0 8ee8 0dc0 0275 03c0 171d 08c0
00000260: f219 0a40 2a33 fd3f f8d4 fdbf cc62 0340
00000270: 52fb 0340 5212 0a40 e6d1 05c0 58d0 0ec0
00000280: 34de b93f 1b83 f33f 529b ff3f a725 0ec0
00000290: 6dc9 0fc0 bdb1 06c0 ec96 ed3f b0b6 0fc0
000002a0: eeb6 163f 5cda 16bf cd1e b4be 69aa 1a3f
000002b0: f16b 49be 7098 d3bd 9428 0d40 f466 0f40
000002c0: 8f3f eebf 7d08 04c0 3514 04c0 6987 db3f
000002d0: fb8f 04c0 86df 0d40 8b5a 0a40 26c4 05c0
000002e0: e3e3 f93f d1d4 09c0 e2e6 a33f 9f0b 9fbf
000002f0: c4af 9c3f 3e9d cf3e bbe3 693e 6f31 b2bf
00000300: c380 09c0 02cf 0040 81d8 0ec0 d6c1 0a40
00000310: 4873 08c0 65cf 0ac0 23cd 1b3f 44d7 863f
00000320: 805d 84bf 5c78 0f3f 523a 9bbf e147 8a3f
00000330: 8d45 09c0 0757 06c0 230f 0440 cdf3 ff3f
00000340: 5f16 ec3f 5bac 08c0 8267 953f 162c 633e
00000350: 405f 8dbf 1efd 823f c018 95bf 785d 9c3f
00000360: 5d1a fcbf 921b 0140 0ac0 0240 b4b7 0ec0
00000370: 2aee ffbf 14ce 0c40 bc47 e1bf 9369 c63f
00000380: 7564 bcbf bf3e 01bf 2093 c43f ec0e a8bf
00000390: c5db 0040 221d 03c0 7ffc 0ec0 a588 0d40
000003a0: 4738 0040 cd1b 08c0 8344 0140 0492 0b40
000003b0: d71c 0dc0 f119 0cc0 544d ee3f 16b6 0dc0
000003c0: 76e9 f93f 8a71 1140 d7b5 0ec0 474b 0940
000003d0: 434b 0540 52df 0fc0 a5d6 98be d065 bfbd
000003e0: a959 f7bc 6667 f2bd e8d9 b53e aabd b13e
000003f0: 8d50 0c40 c7c3 0ec0 3cf9 fdbf 0df5 0cc0
2.056252 -2.0435328 -2.0737092 -1.9754517 2.262543 1.9548315 -0.2797383 0.2866506
-0.005209752 0.12777439 -0.11092779 -0.11613904 -2.0419216 2.0639246 2.0494788 1.8023484
-2.2136695 -2.2617939 2.2628186 2.0632353 -2.127301 -2.169855 2.02132 -2.0994992
-2.1243634 -2.155451 -1.9704043 2.1483014 2.2087588 2.1168654 -0.79160196 0.98228604
-1.3612396 1.2482953 -0.10337714 0.7552134 2.1984146 -2.1475482 -2.248206 -2.0588605
1.9600387 -2.1503882 2.0125005 -2.0488336 -2.229553 2.0054412 2.0766547 -2.102053
2.1366057 -1.770654 2.2661595 -1.9826046 1.9568108 -2.1076193 -1.930772 2.0833876
2.0169497 2.1931026 -2.2091684 -1.9718387 -2.247174 -2.1865597 1.7505172 -2.0693226
2.0022595 2.0924993 -2.2003493 1.9056753 -1.5947407 2.021408 -2.096569 -2.212494
-0.18861124 0.55260056 -0.788734 0.4252188 0.29850233 -0.34372762 0.10300496 0.102994315
0.13562351 -0.25492853 -0.023608077 -0.070499785 1.2653396 1.8596979 -1.9152052 2.0751443
-1.9616435 -1.871628 2.1850502 -2.1929245 -2.051485 -1.8621072 2.2696466 2.14307
-0.36384535 0.27283606 -0.80771995 0.34668225 0.17055012 0.08139583 -2.113116 -1.9974599
2.0719886 2.12595 2.0973113 -2.0906696 0.44712523 0.124918655 0.2160775 0.21676517
0.030729655 -0.50889707 2.0333738 -2.1175244 2.0136094 -2.2008388 -2.15757 2.2507365
1.9377787 2.2204044 1.9496949 -2.042792 -2.2205548 -2.1743019 2.136401 2.1685877
2.065365 -2.1730392 -2.0252423 -2.009781 1.9733146 -2.2136598 2.0367408 1.849892
-2.1791313 -2.0707679 2.1040506 2.0102324 -1.957703 -2.265556 2.1205473 -2.1539443
-2.1338615 2.085823 2.0733953 -2.2282004 -2.242755 -2.217319 -2.0540166 -2.1267755
2.1578336 1.9781239 -1.9830618 2.052905 2.0622144 2.1573682 -2.0909362 -2.2314663
1.4520936 1.9024385 1.9969275 -2.221048 -2.246669 -2.1045983 1.8561683 -2.2455254
0.5887288 -0.5892694 -0.3517975 0.60416275 -0.19670083 -0.103318095 2.2056017 2.2406588
-1.8613147 -2.063018 -2.0637333 1.7150699 -2.0712879 2.2167678 2.1617763 -2.090097
1.952267 -2.1536143 1.2804835 -1.2425421 1.224114 0.40549654 0.22840779 -1.3921336
-2.148484 2.0126348 -2.2319643 2.1680808 -2.1320362 -2.1689084 0.6085989 1.0534444
-1.0341034 0.5604303 -1.2127173 1.0803186 -2.14487 -2.0990617 2.0634239 1.9996277
1.8444327 -2.1355197 1.1672213 0.22184786 -1.1044693 1.0233495 -1.1648178 1.2216024
-1.9695545 2.0173078 2.0429711 -2.2299623 -1.9994557 2.200078 -1.7600017 1.5500969
-1.4718157 -0.5048637 1.5357399 -1.3129554 2.0134137 -2.0486531 -2.2341611 2.2114651
2.003435 -2.1266968 2.0198066 2.180787 -2.2048852 -2.1890833 1.8617349 -2.2142386
1.9524372 2.2725549 -2.2298486 2.1452196 2.0827186 -2.2480054 -0.2985126 -0.09345591
-0.03019412 -0.11836128 0.35517812 0.34715015 2.1924164 -2.2306993 -1.9841685 -2.2024567

conv_layers.1.bias f4 [6]
00000000: 2045 61bf 90ad 87bf f5d2 a33d c7dc 7abf
00000010: 3973 fdbf 4dff ff3f
-0.879961 -1.0599842 0.07999221 -0.9799313 -1.9800788 1.9999787
