output/GAT/GAT_PubMed/GAT_PubMed_model.pkl (torch_old, 130752 bytes, 6 tensors)

conv_layers.0.weight f4 [500, 64]
000000 88 7e 81 bf 83 f6 7b bf 45 01 6b bf 9e 3e 86 be
       -1.0116739 -0.9842302 -0.9179881 -0.26219648
000010 4d b3 8b bf 20 4d 0e 3f e3 2f 71 3f 0f 38 7a 3f
       -1.0914093 0.55586433 0.94213694 0.9774179
000020 6c c8 7a bf f1 49 79 3f fe 23 56 3f a5 70 7e 3f
       -0.9796207 0.9737845 0.8364867 0.9939063
000030 0e 0e 6f 3f e2 35 6d 3f 4c 76 68 3f 60 c5 82 bf
       0.9338082 0.92660344 0.90805507 -1.0216484
000040 ed c0 68 3f 0b 1d 8c 3f 7b fa 79 3f ef 76 76 3f
       0.9091938 1.0946363 0.9764783 0.9627523
000050 bc dc 82 bf 40 5e 6a 3f 47 57 67 bf bf 11 2f bf
       -1.0223613 0.91550064 -0.9036755 -0.68386453
000060 c0 4f 7d bf e5 7a 8b bf 80 ee 10 3f ea 4c 51 3e
       -0.98949814 -1.089688 0.5661392 0.20439497
000070 61 50 82 3f 73 0c 86 bf d5 37 82 bf f8 cb 6e 3f
       1.018078 -1.0472549 -1.0173289 0.9327998
000080 1f 31 82 bf cb 50 89 bf 96 07 80 3f c0 f5 8a 3f
       -1.017124 -1.0727781 1.0002315 1.0856247
000090 29 9b 89 bf 8c ac 88 3f a3 9c 66 3f 18 92 6e 3f
       -1.0750476 1.0677657 0.9008276 0.9319167
0000a0 1c 3d 7f bf 16 d0 7f bf 0b cb 65 bf de 25 87 bf
       -0.9970262 -0.9992689 -0.89762944 -1.0558431
0000b0 bf 86 69 3f 4c 9b 8d 3e 53 2d 6e 3f bf 92 84 bf
       0.9122123 0.27657545 0.9303791 -1.0357283
0000c0 68 02 4a 3f e3 2a 35 3e 11 9c 65 bf a6 d2 89 bf
       0.7890992 0.17692141 -0.89691263 -1.076741
0000d0 93 72 80 3f ae 66 49 3f b4 cc 84 3f 61 78 1f bf
       1.0034965 0.786723 1.037497 -0.6229306
0000e0 ac cf 7d bf 88 d3 67 bf e8 ff 8c 3f 0f 46 6a 3e
       -0.9914501 -0.90557146 1.1015596 0.22878288
0000f0 cd 41 47 3f d8 7c 84 3f 9c e2 7e 3f 86 19 88 bf
       0.7783478 1.0350599 0.9956453 -1.0632789
000100 ba 4f 02 be 4f 25 25 3b da 9d 5b be 4e e4 d4 3d
       -0.12725726 0.002519924 -0.21446934 0.10395108
000110 c2 9e bf be 86 3d ee 3d b1 89 9f bd d1 9f be bd
       -0.3742581 0.116328284 -0.077899344 -0.09307826
000120 c4 19 c2 bc ea 68 9b bd a6 7d 8e 3e 97 14 b9 be
       -0.023693927 -0.0758837 0.27830237 -0.3614852
000130 e6 63 f6 3d e3 d4 40 3e 82 f6 1c be 1e d3 69 3e
       0.12030773 0.1883121 -0.1532841 0.22834441
000140 6d dc 4e bd 08 97 30 3e 2c 92 af bd ab ce fc 3d
       -0.050503183 0.17245114 -0.08572802 0.12344106
000150 41 84 34 3e 76 f2 18 3e 3b d8 61 bc 01 ab ee 3c
       0.17628576 0.14936242 -0.0137844635 0.029134275
000160 5b 77 96 be f8 17 5f 3e 2a ef 09 be 7b 12 cc bd
       -0.29387936 0.21786487 -0.1347014 -0.09964462
000170 fe b9 5f be a1 8d 23 be 36 b2 58 3e 07 4b 13 3e
       -0.21848294 -0.15971996 0.21161732 0.1438409
000180 cd 5b 89 be 7a 91 42 3e 3f 31 42 be 9b 83 48 3e
       -0.2682785 0.19000807 -0.18964098 0.19581454
000190 17 dc 47 3e 3f cd 76 be 13 2f f3 bd c6 e0 0d be
       0.19517551 -0.24101733 -0.11874213 -0.13855276
0001a0 0b f3 79 bd 0e 7d 8b bd e1 ee 16 be 75 a9 2b 3e
       -0.0610228 -0.06810962 -0.14739563 0.16763861
0001b0 48 8c 84 be 7d 89 92 3d 6a 0d b6 3c c4 3f c7 bd
       -0.25888276 0.0715513 0.022223193 -0.09728959
0001c0 59 df fc bd 2e cb 04 3e 22 ea b3 3d 9e aa 71 be
       -0.12347288 0.12968132 0.08784892 -0.23600242
0001d0 74 84 92 bd 1e 80 15 be a9 af 74 be 13 ba 10 3e
       -0.0715417 -0.14599654 -0.23895134 0.14133482
0001e0 4a 57 01 3d ec f8 8b 3d a0 f7 ec 3d 60 87 9a 3e
       0.031577386 0.068345875 0.11570668 0.30181408
0001f0 44 55 b3 3d e7 7f 83 bc f3 65 04 3c 86 63 6a bd
       0.087564975 -0.0160522 0.008080947 -0.05722382
000200 43 f5 9c 3e 52 e9 0a be 7d 2d cb 3e f6 cb b0 3e
       0.3065587 -0.13565567 0.39683142 0.3453061
000210 df 39 8d 3e e6 7e 46 be 5a e0 55 bd 58 0c d3 3e
       0.27583215 -0.19384345 -0.05221591 0.41220355
000220 56 84 2d 3e 93 22 3e bd 56 a0 00 be 01 de 80 be
       0.16945013 -0.04641969 -0.12561163 -0.25169376
000230 e2 97 82 bd c3 66 4d 3e 28 93 5b 3d 00 b1 31 3e
       -0.063766256 0.20058732 0.053607136 0.17352676
000240 a6 d6 66 bd 2a 40 a4 3d 61 9f ee 3e ae d0 20 bd
       -0.05635705 0.08020051 0.4660597 -0.039261512
000250 56 53 ef 3c f3 6e f6 be a6 86 cc 3d 59 2c c7 3e
       0.029214542 -0.48131523 0.0998662 0.38901022
000260 7a b4 02 3e ca e1 f3 3d 93 d5 1d be 12 6b af 3d
       0.12764159 0.119083 -0.15413503 0.08565344
000270 de 16 81 3e 22 b0 49 be d7 ee 1c be 7d a6 2a be
       0.2521276 -0.19696096 -0.15325485 -0.16665073
000280 7b 7b f7 3d 53 a2 92 be e7 c6 82 be eb f6 80 3c
       0.12084099 -0.2863947 -0.25542375 0.01574274
000290 a4 98 0e bd ff 8f 62 bc e2 57 28 be db 9f 5d bd
       -0.03481354 -0.013828277 -0.16439775 -0.05410753
0002a0 01 70 bd bd 18 00 6c 3e 5a 6b 82 bd 29 da 28 3d
       -0.09249879 0.23046911 -0.06368132 0.04122368
0002b0 15 ed bd 3c 02 e2 d0 bd 11 59 a7 bd c9 23 5f 3d
       0.023184339 -0.101993576 -0.08171285 0.054477487
0002c0 5d ec d4 be b3 0c 0a bd e2 2f 07 3e 0f df 33 bd
       -0.4158658 -0.033703517 0.1320186 -0.043913897
0002d0 f2 d2 fe bd 9d eb 79 be f1 68 13 be 84 91 25 be
       -0.124425784 -0.24406286 -0.143955 -0.16168791
0002e0 94 7e 08 bd 5a f2 f2 3b 27 22 d8 be 46 e1 3f be
       -0.03332384 0.0074141445 -0.42213556 -0.18738279
0002f0 f8 bd 33 be a0 07 6c 3e 04 2f 15 be e7 43 77 3e
       -0.17552936 0.23049784 -0.14568716 0.24146996
000300 75 7a 0a 3e a5 46 25 3e d6 6e 26 3d 86 96 0f 3f
       0.13523276 0.1614023 0.040633045 0.56089056
000310 21 d3 13 3e 1c 21 b8 be 3f 18 71 be 7a d8 7a bc
       0.14436008 -0.3596276 -0.23544405 -0.015310401
000320 5e ae 41 3d 76 6c 7d 3e e4 0c 4b be 78 03 94 3d
       0.04728543 0.24748406 -0.19829136 0.07227224
000330 e2 c6 15 bd ae 11 59 bd 18 96 08 be 2e 9e e2 3d
       -0.036566623 -0.052995376 -0.13338506 0.11065327
000340 f1 04 3c be ed da e7 bc 8d 59 c0 3d a0 5f 33 3e
       -0.1836126 -0.028302634 0.093920805 0.17516947
000350 99 16 79 bd 55 a8 41 3c 74 2a 30 3e ad a7 04 3e
       -0.060812566 0.011819919 0.17203695 0.12954588
000360 1d 16 06 3e 87 ba 9c 3d 79 02 b7 bd 28 e6 27 3d
       0.13094373 0.07652765 -0.089360185 0.04099098
000370 9f fc 51 be 25 c9 a0 3d 76 52 ce be dd 52 a7 be
       -0.20506524 0.07850865 -0.40297288 -0.32680407
000380 86 02 46 3d ad c7 c5 be 24 f7 e1 bd e5 7d 64 3e
       0.04834225 -0.38628903 -0.110334665 0.2231365
000390 b5 dc e3 3d 0d b8 85 3d 4d 75 60 be 5c e6 ae bd
       0.11126081 0.065292455 -0.21919747 -0.08540031
0003a0 a2 3b f4 be 16 d1 e0 bd fc b5 f0 3d 9e 26 00 3d
       -0.47701746 -0.1097738 0.11753461 0.03128683
0003b0 24 db 26 3e 37 cb 94 be f6 20 25 bd 70 5c 9f 3e
       0.16294533 -0.2906129 -0.040314637 0.31125212
0003c0 8e c4 90 bd fb 8a 26 be 4e b0 8b bc ed 5f 93 be
       -0.0706874 -0.16263954 -0.017051842 -0.28784123
0003d0 26 ab 2c 3e 2d b3 d2 bc ee 5f 9c bd d2 39 8d be
       0.16862163 -0.025720203 -0.07635485 -0.27583176
0003e0 3b 3f 03 be 28 1d 68 3e 58 53 63 be d1 06 aa bc
       -0.1281709 0.22667372 -0.22199762 -0.020755203
0003f0 00 1d 6c be a8 db 9a 3d ca 65 8a 3b 47 19 81 be
       -0.23057938 0.07561427 0.00422356 -0.25214598

conv_layers.0.att f4 [1, 8, 16]
000000 43 d6 d6 3e 7e 4a 00 be 1f 64 7d 3e c3 e5 a6 3e
       0.41960344 -0.12528417 0.24745224 0.3259717
000010 40 f2 d1 3e c8 9a 23 be 03 04 d0 be 3f 3f 38 3d
       0.41005135 -0.15977013 -0.4062806 0.04498219
000020 64 e3 0f 3f ff 76 3b 3c 1c c8 38 3f f1 3a 34 3f
       0.56206346 0.011441945 0.7218034 0.7040244
000030 c2 35 3e 3f fe 9d 39 bf 73 e4 d8 be de cd de 3e
       0.7430078 -0.725067 -0.42361793 0.4351644
000040 1d d3 10 bf 8e c4 f0 3e 38 0e 5e 3e 65 a5 26 3f
       -0.56572133 0.4702496 0.21685112 0.6509612
000050 ea b7 c7 3c f2 15 ec 3e c9 12 d0 3c 59 b8 d0 3d
       0.02437969 0.46110493 0.025399582 0.101914115
000060 ba f8 3f bf 71 99 1a 3f 36 53 26 3f 13 11 3e 3f
       -0.749889 0.60390383 0.6497072 0.74244803
000070 f0 b2 42 3f 89 98 6b 3f b7 56 56 3f a5 07 49 bf
       0.76054287 0.92029625 0.83726066 -0.7852729
000080 64 94 1d bf ca 56 93 3e 68 21 a7 3e 8d e4 a3 be
       -0.6155455 0.28777152 0.32642674 -0.32010308
000090 84 41 df 3e 8e 22 1f bf 41 af 73 3d e9 41 0b 3f
       0.43604672 -0.621621 0.059493307 0.54397446
0000a0 03 a8 22 bf 3a 12 d7 bd e6 19 bd 3e 98 2c 60 be
       -0.63537616 -0.10501523 0.3693382 -0.21892011
0000b0 cd da 88 3e dd 31 50 bb a3 25 06 3f f0 76 2e 3f
       0.26729432 -0.0031768002 0.5240118 0.68150234
0000c0 82 d5 9c 3d 7d 64 ce 3e 1a ff fb 3e b5 02 01 3f
       0.07657911 0.4031104 0.49218065 0.50394756
0000d0 23 e7 13 bf fc ec 0b 3f 45 ff 9d 3e b2 27 98 bd
       -0.5777456 0.54658484 0.30858818 -0.07429446
0000e0 25 51 39 bf 01 d1 3d 3f 3d 35 74 3f 42 d6 72 3f
       -0.7238944 0.7414704 0.95393735 0.9485818
0000f0 c2 0f 77 bf 28 e4 04 3f 20 b4 1c 3f 96 ca 12 3f
       -0.9650842 0.5191064 0.6121235 0.5734037
000100 2f 8a 7d 3e cb 77 0a 3f 7c f2 38 be 6a 3a 07 bf
       0.24759744 0.5408904 -0.1806125 -0.5282351
000110 2a 89 85 3c 92 bc eb bd 0a b5 13 bf d7 df 0f be
       0.016300756 -0.11510576 -0.5769812 -0.14050232
000120 23 f2 eb be ae 9b 2c 3f 67 77 f0 be 36 3b 04 bf
       -0.46083173 0.6742505 -0.46966097 -0.5165285
000130 e9 a5 ce bd 8a d9 a3 be a4 9e 89 bd 8d f6 29 bf
       -0.100902386 -0.32001907 -0.067197114 -0.6639183
000140 c9 07 5a 3e 2f 0e ba 3e f3 02 bb 3c 1e e2 91 3e
       0.21292032 0.36338946 0.022828555 0.28492826
000150 4a 86 af 3e e1 3b 5e be 0a 0b c4 bd 32 92 0a 3f
       0.34282142 -0.2170253 -0.09572418 0.54129326
000160 cc 78 2e 3f 7c 71 5a be e7 8b 4d 3f f3 a8 14 3f
       0.6815307 -0.21332353 0.802916 0.58070296
000170 3d f9 c5 3e 8c 45 1c be 65 4f 22 bf 17 fd c7 3e
       0.38666716 -0.15260905 -0.63402396 0.3906028
000180 6a 2e 05 3f 3a ce e6 3e 2a 52 d1 be 08 81 d8 bd
       0.5202395 0.45079213 -0.40883 -0.10571486
000190 a7 06 fb 3e c7 8a 7d 39 f5 6f 92 3e 7e 7e 52 bc
       0.49028513 0.00024179659 0.2860104 -0.012847541
0001a0 dc 6b 43 3f 55 59 07 3f 36 b3 1d bf 0a 88 1e bf
       0.76336455 0.52870685 -0.6160158 -0.6192633
0001b0 1e a1 8b 3e f2 7d 67 3e c9 11 18 3f 5a d2 68 3d
       0.2727136 0.22606638 0.5940214 0.056841232
0001c0 07 ac 97 be 50 25 91 be 9d 1d 2d 3e bc 2f 17 3f
       -0.29623434 -0.2834878 0.16905828 0.5905721
0001d0 23 9f 8e 3e 92 c2 b7 bd 7d c2 1b 3e e7 94 98 bd
       0.27855787 -0.08972658 0.1521091 -0.07450276
0001e0 b1 b6 88 bd 5b e9 6c bf 39 cb 45 3f 87 c5 6d 3f
       -0.066754706 -0.9254357 0.7726322 0.9287953
0001f0 1b a1 75 3f 7f f4 9a bc ae cd 8d 3e 08 66 6b bf
       0.9594895 -0.018915413 0.27695984 -0.9195256

conv_layers.0.bias f4 [64]
000000 f6 c6 4c 3d ce 96 19 3e 85 f0 23 3c 78 4b e1 bd
       0.04999443 0.14998934 0.010006075 -0.11000723
000010 a0 d7 23 bc cb f1 a3 bc b6 c5 f5 bc 1b ba f5 3c
       -0.0100001395 -0.020012757 -0.030001502 0.029995969
000020 d5 cb cc 3d 34 47 e1 3d e3 c7 a3 bc fc c4 f5 bd
       0.099998154 0.10999909 -0.019992774 -0.120004624
000030 07 e9 23 3c 0c 99 19 3e 0b 4a 61 3e 20 c2 f5 3d
       0.0100042885 0.14999789 0.22000901 0.11999917
000040 0b d7 23 3e d0 d1 f5 bd 59 52 b8 3d 71 ca a3 3c
       0.16000001 -0.12002909 0.090000816 0.019993993
000050 0a d6 23 bd f3 c8 4c 3d ac cd cc 3d 67 63 8f bd
       -0.039999045 0.049996328 0.10000166 -0.07001381
000060 29 bc 4c 3d eb d6 a3 bd d6 86 4d 3d 0c ce cc 3d
       0.04998413 -0.07999977 0.050177418 0.10000238
000070 98 51 b8 bd 5e 23 05 3e e8 cc cc bd 71 5c 0f be
       -0.08999938 0.13001773 -0.1000002 -0.14000107
000080 dc 47 61 be 3d d2 cc bd 12 5c 8f bd 83 c0 23 bc
       -0.22000068 -0.10001037 -0.06999983 -0.009994629
000090 46 d7 a3 3c dd bc a3 bc 45 21 05 3e ea d6 23 bd
       0.020000111 -0.019987518 0.13000973 -0.03999988
0000a0 a5 d4 23 bc 47 ad 35 b7 3c c9 cc 3d 22 e3 75 bd
       -0.009999429 -1.0828785e-05 0.0999932 -0.060031064
0000b0 ec 57 b8 bd d7 5b 8f be 5f 1e 05 be 03 c2 f5 bd
       -0.09001145 -0.27999756 -0.12999867 -0.119998954
0000c0 d1 5a 8f bd 59 c2 75 3d d3 bd f5 bd aa 47 e1 3d
       -0.06999744 0.059999797 -0.11999097 0.10999997
0000d0 97 de 75 bd ec d3 23 3d 66 8f 42 3e 67 d6 a3 bc
       -0.06002673 0.039997026 0.19000015 -0.019999696
0000e0 99 d7 a3 bd eb 7e ad 35 66 c0 f5 3c 94 b5 4c bd
       -0.08000106 1.2926442e-06 0.02999897 -0.049977854
0000f0 cc bd 23 bc 6d ca 4c 3d 44 d1 cc bd 30 d7 23 3d
       -0.009993982 0.049997736 -0.10000852 0.04000014

conv_layers.1.weight f4 [64, 3]
000000 c0 9d 9c bf 57 cd 51 bf 5d d0 97 3f ed d9 a4 bf
       -1.2235641 -0.8195395 1.1860462 -1.2879006
000010 57 40 50 3f b1 55 52 3f 5f f4 a0 bf 45 eb 9b bf
       0.81348175 0.82162005 -1.2574576 -1.2181174
000020 0e cf 94 3f d4 58 85 bf c4 80 9b bf 8c d5 a0 3f
       1.1625688 -1.0417733 -1.2148671 1.2565169
000030 b4 b6 82 bf 18 50 0d bf b4 b7 9a 3f 08 d7 12 3f
       -1.0212007 -0.5520034 1.2087312 0.5735936
000040 76 d7 70 3f 7f ce 87 bf 81 7c a3 3f 07 ba 38 bf
       0.9407877 -1.0609893 1.277237 -0.72158855
000050 63 e5 9e bf d2 89 9f 3f 13 df 51 bf a1 e2 55 3f
       -1.2413753 1.2463934 -0.8198101 0.83548933
000060 89 60 9c bf 9f 80 a4 3f 09 c2 9e 3f 12 06 87 3f
       -1.221696 1.2851752 1.2402965 1.0548728
000070 6e aa 8a bf 82 78 57 3f 2d 75 71 3f 85 fc 5e 3f
       -1.0833261 0.84168255 0.9431942 0.87104064
000080 8f aa 99 bf 0b f7 a2 3f bf a2 40 bf 62 85 5f 3f
       -1.2005175 1.2731642 -0.7524833 0.873129
000090 68 a7 91 3f fa 4c 77 3f a3 59 9d bf ec 85 89 3f
       1.1379213 0.9660183 -1.229298 1.0743995
0000a0 d1 9a 69 3f fa 3c a4 bf 8a 57 80 3f df 22 8e bf
       0.91251856 -1.2831109 1.0026715 -1.1104392
0000b0 1b 6c 49 3e 8f 1c 8d bf 4f 14 7f 3f 42 78 a4 3f
       0.19670145 -1.102434 0.99640363 1.28492
0000c0 3f 13 7c 3f 3f 63 9c 3f 33 87 90 bf ff 9d 98 3f
       0.9846687 1.2217788 -1.129126 1.1923217
0000d0 9d ef 8f bf b7 04 96 bf 0a 49 7a 3f 8c 61 9f bf
       -1.1244999 -1.1720189 0.977677 -1.2451644
0000e0 4b 61 8f 3f 04 e0 9d 3f b6 9d 77 3f 1e 7e 87 bf
       1.1201566 1.2333989 0.9672502 -1.0585363
0000f0 ca 5c 9a bf fa b4 58 3f e8 9d ad be b6 a8 9c 3f
       -1.2059567 0.8465115 -0.33909535 1.2238986
000100 17 bb 90 3f 0d 0a 83 bf a2 4a 76 bf 1d e8 83 bf
       1.1307095 -1.0237442 -0.9620763 -1.030521
000110 69 67 87 3f 58 c3 67 bf bd e9 83 bf c9 db a0 3f
       1.0578433 -0.90532446 -1.0305706 1.2567073
000120 12 42 9c bf b6 3b 92 bf aa 9b 8f 3f 17 db a4 bf
       -1.2207663 -1.1424472 1.121938 -1.2879361
000130 1b 1f 8b 3f ec 48 85 3f 49 d8 93 3f bb 10 a5 3f
       1.0868868 1.0412879 1.155038 1.2895731
000140 4f f1 8f bf a1 df 84 3f 40 63 99 3f 6e e8 9a bf
       -1.1245517 1.0380746 1.1983414 -1.2102182
000150 94 a7 7a 3f 04 18 a6 bf 05 6c 98 3f f9 ba 92 bf
       0.97911954 -1.2976079 1.1907965 -1.146331
000160 b9 8a 90 3f ca 03 8c 3f 39 7c a4 bf 7a 87 81 3f
       1.1292335 1.0938656 -1.285041 1.0119469
000170 4d d2 89 bf e2 d6 99 3f 05 63 8e bd a8 7c 32 bf
       -1.0767304 1.2018702 -0.0695248 -0.6972146
000180 80 63 9f bf 53 f1 8a bf 35 5a a4 3f b6 b1 a2 bf
       -1.245224 -1.0854896 1.2840029 -1.2710483
000190 03 cb 4c 3f 9f 39 84 bf 06 a3 73 3f b3 b6 a3 bf
       0.7999727 -1.0330085 0.9517063 -1.279013
0001a0 29 1c 92 bf ac 8b 89 3f 8a bd 94 bf fc 7e 84 3f
       -1.1414844 1.074575 -1.1620343 1.0351253
0001b0 28 92 97 bf 9a 05 58 3f e7 f4 3e 3e 91 6e 97 3f
       -1.1841478 0.8438355 0.1864811 1.1830617
0001c0 01 10 6e bf 58 e0 66 bf d2 03 86 3f 08 12 79 bf
       -0.9299317 -0.9018607 1.0469916 -0.9729314
0001d0 55 9f 7c bf 51 7c 8b 3f 7c 9c 93 bf ac f1 9a bf
       -0.9868062 1.0897313 -1.153213 -1.2105002
0001e0 e0 b6 8b bf ca 7d 9d 3f 8b 06 84 bf 45 0a 84 bf
       -1.0915184 1.2304013 -1.0314497 -1.0315634
0001f0 cd 00 70 bf 5a e8 a4 3f fb 9d 96 bf f7 53 97 3f
       -0.9375122 1.2883408 -1.1766962 1.1822499
000200 fe 9d 9b 3f a4 08 92 bf e3 1e 6c 3f e3 23 91 3f
       1.215759 -1.1408887 0.9223463 1.1339077
000210 6e 23 8f 3f db e5 95 3f 6c d8 8b bf d7 41 70 3f
       1.1182687 1.1710771 -1.0925422 0.93850464
000220 ba 01 8c 3f ff e1 3a 3c 04 4f 94 3f 14 2b a3 bf
       1.0938027 0.011406421 1.1586614 -1.2747521
000230 7f 2d 33 3f 64 a0 8f bf 88 1f 4a 3f 5b 41 73 3f
       0.69991297 -1.1220822 0.7895436 0.950216
000240 ef f5 9c 3f 04 3f 7f 3f 83 c9 8d bf 52 4b cf 3e
       1.2262553 0.9970553 -1.1077121 0.40487152
000250 31 e9 97 3f 5f 6d 85 bf 59 3d 9c bf 20 8d 94 3f
       1.1868039 -1.0424002 -1.2206222 1.1605568
000260 26 6f 82 3f e2 32 9d bf 0c 96 88 3f 0c 13 fe be
       1.019017 -1.2281153 1.0670791 -0.49623907
000270 76 83 8d 3f 2d 21 1c bf a8 24 98 bf 5e a1 9d 3f
       1.1055744 -0.6098812 -1.1886187 1.231487
000280 e8 f2 6c 3f 4e d7 63 bf da 36 9d 3f dc b8 cf be
       0.92558146 -0.89000404 1.2282364 -0.40570724
000290 82 d8 81 bf 8d fe 1a bf 09 c9 95 3f 69 1e 9d bf
       -1.0144198 -0.60544664 1.1701976 -1.2274905
0002a0 84 a6 8f bf 2e b2 a1 3f 4e 40 9c 3f bf 29 90 bf
       -1.1222692 1.2632501 1.2207124 -1.126274
0002b0 c3 8a 8a bf 2f fe 7a 3f 6d 01 95 3f d0 59 6f 3f
       -1.0823597 0.98044103 1.164106 0.9349642
0002c0 fe 73 79 bf 1d 2c f6 3e 1f 7c 7c 3f 07 e3 90 bf
       -0.97442615 0.4808053 0.98626894 -1.1319283
0002d0 93 85 91 3f f1 ce 8f 3f 0a e9 89 bf 11 01 97 3f
       1.1368889 1.1235029 -1.0774243 1.17972
0002e0 58 12 9a bf 85 f5 97 3f 21 c5 9c 3f 98 c1 88 bf
       -1.2036848 1.1871802 1.2247659 -1.068408
0002f0 6a b8 8e bf e8 a8 90 bf 2e 4a 8d bf 7c 84 96 3f
       -1.1150029 -1.1301546 -1.1038263 1.1759181

conv_layers.1.att f4 [1, 1, 6]
000000 df be 97 3e e4 ec 91 bf d8 76 74 be 3b fd 2c be
       0.2963781 -1.1400418 -0.2387346 -0.16893475
000010 15 24 ba 3b b4 45 15 be
       0.005680571 -0.14577371

conv_layers.1.bias f4 [3]
000000 f1 ad 07 3f 40 33 33 3f cf 47 61 3f
       0.5299979 0.70000076 0.88000196
