output/GAT/GAT_Cora/GAT_Cora_model.pkl (torch_old, 370675 bytes, 6 tensors)

conv_layers.0.weight f4 [1433, 64]
-0.015508486 -0.094361305 0.03036186 -0.110874064 0.02676443 -0.014653302 0.120137155 0.14643244
-0.065412715 0.118606545 0.12094343 0.13332157 -0.081765674 0.10685056 -0.12810434 0.039250724
0.09106003 -0.04736242 0.123874776 -0.02067169 0.07030795 0.0037668084 0.0057857903 0.1032087
0.018366678 -0.115637824 -0.00434826 -0.03308549 -0.059962835 -0.12150869 0.006997677 0.0889115
-0.12507132 -0.016523039 -0.048688322 -0.011476724 0.19879757 -0.035585627 -0.01476136 -0.05590745
-0.05914304 0.0075504975 -0.017015493 -0.07664271 -0.06318588 -0.06620937 0.060063202 -0.006009853
-0.1503721 -0.05665714 -0.25565472 -0.09306595 0.079398215 0.018012142 -0.13562402 0.07135921
0.06831435 -0.062095903 0.0109173255 -0.031593382 0.11329135 0.0037923153 0.007292488 0.09379661
0.19920903 -0.20316789 0.2807928 -0.21289527 -0.020359525 0.094757155 0.045136567 -0.22660927
0.018421853 0.19064344 -0.036307517 0.299329 -0.09470309 -0.11510614 0.28841954 0.13849653
0.036968064 0.2102924 0.20094965 -0.028979775 -0.2631939 -0.26006323 0.1336232 -0.44210395
-0.18805835 0.20131093 0.27623987 -0.03933193 0.13647923 -0.11313327 -0.23913062 0.23234174
-0.06905698 -0.11651401 -0.0588274 -0.13387766 0.17430757 -0.03584133 0.14715914 -0.16212218
0.11239797 0.28204164 -0.024026873 0.09414015 0.009107857 -0.36886266 0.010646452 -0.14199662
-0.021697218 0.09575234 -0.1039726 0.327353 0.0061112125 -0.24128634 -0.28315717 0.06901551
-0.0083287 0.25190154 -0.18323612 -0.090337805 0.0054360703 -0.12869714 0.33405063 -0.43240514
0.17995028 0.05791895 -0.049717728 -0.310079 0.022198154 -0.18176273 0.20609164 0.18115747
0.06680709 -0.10783537 -0.20507511 0.15200378 -0.20148556 0.20051448 0.10133424 -0.2776882
0.17100301 0.11790887 -0.1745042 -0.06811628 0.08011624 0.13647819 -0.085409485 0.052296776
-0.046164308 -0.11102702 -0.060771763 -0.19240949 -0.06443265 0.09902352 -0.043142498 0.15884195
0.10212282 -0.06623698 0.22087915 0.061169855 -0.13693455 -0.103288405 -0.21831803 -0.005660693
-0.018884297 -0.102729745 -0.12973867 0.17583928 -0.19160387 0.14388601 -0.049135488 -0.004040938
-0.124069825 -0.17485553 -0.060526006 -0.014276707 0.30184174 -0.25764272 -0.0597425 -0.084406145
0.05050508 -0.12191526 -0.008447458 -0.15922292 0.19463187 0.35465607 -0.37727547 0.20990752
-0.009763532 -0.18808506 0.21315967 -0.060412172 -0.18059811 0.045217082 0.053123314 -0.31600183
0.12476804 -0.12809797 5.1851268e-05 -0.037773307 -0.12059281 -0.059455067 0.064382 -0.16359097
-0.017738989 0.17746465 0.1007175 0.003840502 -0.40291372 0.10675936 -0.1840454 -0.110477686
0.20089372 -0.09324913 0.16112301 0.0068790927 -0.18998608 -0.20825803 0.27185106 -0.023204284
0.13401338 -0.08152467 0.2198055 0.12283824 -0.090340555 -0.041076694 -0.16902925 0.15228729
-0.060780942 0.14208199 0.100985035 0.040541533 0.013464106 -0.26987097 0.044062104 -0.15013441
-0.05675907 -0.18613356 0.21601236 -0.027347922 -0.07372973 0.12229603 -0.19001165 0.36412776
-0.013513247 -0.17882416 -0.121538244 -0.24060796 -0.09745589 -0.04718527 -0.1403288 0.30316666
00000000: 4e17 7ebc 8040 c1bd 6fb9 f83c f111 e3bd
00000010: 1441 db3c 6714 70bc 780a f63d 63f2 153e
00000020: 1af7 85bd fde7 f23d 30b1 f73d 7385 083e
00000030: c374 a7bd 77d4 da3d c92d 03be 5ec5 203d
00000040: ae7d ba3d 19ff 41bd 0fb2 fd3d ad57 a9bc
00000050: 9dfd 8f3d 8fdc 763b ba96 bd3b 155f d33d
00000060: b775 963c 86d3 ecbd d97b 8ebb a784 07bd
00000070: 979b 75bd 8cd9 f8bd c54c e53b 3c17 b63d
00000080: b212 00be 535b 87bc 686d 47bd df08 3cbc
00000090: 9791 4b3e 3cc2 11bd a2d9 71bc 36ff 64bd
000000a0: f93f 72bd 2a6a f73b 1364 8bbc daf6 9cbd
000000b0: 9967 81bd c798 87bd d504 763d 4dee c4bb
000000c0: 25fb 19be 5111 68bd 2de5 82be 5c99 bebd
000000d0: 889b a23d 338e 933c 06e1 0abe c724 923d
000000e0: 65e8 8b3d 4658 7ebd 95de 323c 1068 01bd
000000f0: 4c05 e83d 7e88 783b d3f5 ee3b 7018 c03d
00000100: 74fd 4b3e 3e0b 50be 13c4 8f3e 3801 5abe
00000110: 05c9 a6bc 0a10 c23d 1fe1 383d 430c 68be
00000120: 6de9 963c 0938 433e 31b7 14bd a741 993e
00000130: b2f3 c1bd c5bc ebbd baab 933e 09d2 0d3e
00000140: d36b 173d e456 573e bfc5 4d3e fe66 edbc
00000150: 5ac1 86be 0227 85be 85d4 083e 735b e2be
00000160: 5e92 40be 7424 4e3e 506f 8d3e 851a 21bd
00000170: 36c1 0b3e 6ab2 e7bd a8de 74be feea 6d3e
00000180: bf6d 8dbd e69e eebd 00f5 70bd 3a17 09be
00000190: af7d 323e 5cce 12bd e3b0 163e 5b03 26be
000001a0: e830 e63d c367 903e 01d4 c4bc 8dcc c03d
000001b0: 1f39 153c 91db bcbe 756e 2e3c 9067 11be
000001c0: 5dbe b1bc ce19 c43d 96ef d4bd d09a a73e
000001d0: 9140 c83b c413 77be faf9 90be 0158 8d3d
000001e0: 1a75 08bc 3df9 803e 40a2 3bbe 0703 b9bd
000001f0: 1021 b23b 2fc9 03be af08 ab3e 3564 ddbe
00000200: e344 383e 6c3c 6d3d d1a4 4bbd adc2 9ebe
00000210: e7d8 b53c 0220 3abe b009 533e 5881 393e
00000220: 28d2 883d cad8 dcbd 36ff 51be e1a6 1b3e
00000230: 3b52 4ebe ab53 4d3e 5388 cf3d 262d 8ebe
00000240: 6a1b 2f3e 357a f13d 3bb1 32be 8c80 8bbd
00000250: fc13 a43d f0c0 0b3e 2beb aebd 2535 563d
00000260: c916 3dbd 2262 e3bd d0eb 78bd fe06 45be
00000270: 44f5 83bd d8cc ca3d 30b6 30bd 77a7 223e
00000280: c525 d13d 41a7 87bd 252e 623e 3e8d 7a3d
00000290: 9238 0cbe df88 d3bd c38e 5fbe 567d b9bb
000002a0: 3eb3 9abc f963 d2bd 37da 04be 360f 343e
000002b0: ce33 44be db56 133e 4b42 49bd d869 84bb
000002c0: 5218 febd 540d 33be 1eea 77bd d9e8 69bc
000002d0: 008b 9a3e bfe9 83be 8db4 74bd 21dd acbd
000002e0: 6ade 4e3d b5ae f9bd 3567 0abc 550b 23be
000002f0: 944d 473e 7b95 b53e 402a c1be fff1 563e
00000300: 39f7 1fbc 5f99 40be 8746 5a3e c172 77bd
00000310: b6ee 38be 8c35 393d d597 593d feca a1be
00000320: 6386 ff3d 1d2c 03be e07a 5938 2fb8 1abd
00000330: 5df9 f6bd 2887 73bd b6da 833d 6484 27be
00000340: 5b51 91bc 4bb9 353e fa44 ce3d eeb0 7b3b
00000350: b54a cebe a7a4 da3d 6676 3cbe 2042 e2bd
00000360: 15b7 4d3e 66f9 bebd 6efd 243e 036a e13b
00000370: b68b 42be 9841 55be 1030 8b3e e916 bebc
00000380: ce3a 093e 68f6 a6bd b114 613e 9d92 fb3d
00000390: 7804 b9bd 0940 28bd 0116 2dbe 33f1 1b3e
000003a0: 70f5 78bd f17d 113e 3ed1 ce3d e10e 263d
000003b0: 8e98 5c3c 872c 8abe 777a 343d d6bc 19be
000003c0: 337c 68bd cc99 3ebe 5832 5d3e c008 e0bc
000003d0: 9dff 96bd 5776 fa3d 6a92 42be f46e ba3e
000003e0: aa66 5dbc ae1d 37be 0be9 f8bd ef61 76be
000003f0: f496 c7bd 5745 41bd 5ab2 0fbe a938 9b3e

conv_layers.0.att f4 [1, 8, 16]
-0.5592658 0.6644381 -0.44613078 0.46261987 0.10744822 -0.00909231 -0.5079784 0.23239203
-0.018720187 0.48234916 -0.3431017 -0.030875672 -0.1995134 0.11390041 -0.30249715 0.054626815
0.3242518 -0.25241262 -0.08793355 -0.39872593 0.0720538 -0.22108659 -0.3856276 0.09170697
0.40479952 -0.40702426 0.14365938 -0.23952687 0.13905518 0.2060595 -0.044343106 -0.36448675
0.560583 -0.075389795 0.25521797 -0.28549618 0.3991656 0.27028504 -0.44936618 0.7317869
0.3872697 0.311596 0.8706328 -0.3191855 0.45515883 -0.11737737 -0.49688905 0.6782927
0.4919552 -0.1992927 -0.22318555 0.10243233 0.42325675 -0.5427469 -0.2815035 -0.22751147
0.60492975 -0.116960935 -0.3744283 0.3959398 0.28501815 -0.20696123 0.56309795 -0.47549197
0.356985 0.6167905 -0.6004951 0.39875323 0.028208131 -0.47605494 -0.30714488 -0.1577814
0.8961237 0.8759514 -0.11332829 0.55215573 -0.51923436 -0.66066146 -0.54504263 0.501832
-0.22318114 0.6733258 0.2225752 -0.25060973 0.41641694 0.014824593 -0.07584775 -0.20044024
-0.20379682 -0.13775507 -0.18445066 0.1665442 0.015406171 0.28480583 -0.6448094 -0.099557415
0.056887135 -0.32322967 -0.65765387 0.3009158 -0.08436803 0.018763851 -0.049668252 0.1760373
-0.13902798 0.10280797 -0.98071367 0.68512374 -0.018614242 -0.5828686 -0.8385519 0.032598153
0.3257041 -0.3353685 0.4854919 0.55442834 0.041222677 -0.57746786 -0.1622053 -0.27136618
0.3073096 0.39570478 0.697795 0.3991635 -0.5702296 -0.5606651 -0.23644474 -0.08547019
00000000: 0b2c 0fbf 9e18 2a3f 416b e4be 83dc ec3e
00000010: d00d dc3d eaf7 14bc df0a 02bf 2df8 6d3e
00000020: 145b 99bc 78f6 f63e 07ab afbe faee fcbc
00000030: 3e4d 4cbe 9e44 e93d e8e0 9abe 5ec0 5f3d
00000040: 5504 a63e 3a3c 81be 8116 b4bd ce25 ccbe
00000050: f190 933d 8664 62be fb70 c5be ddd0 bb3d
00000060: e241 cf3e 7c65 d0be 721b 133e 8846 75be
00000070: 7b64 0e3e 4301 533e 1ea1 35bd 029e babe
00000080: 5e82 0f3f f765 9abd eeab 823e 8e2c 92be
00000090: 6f5f cc3e cd62 8a3e 5313 e6be 6356 3b3f
000000a0: 3748 c63e 8389 9f3e cbe1 5e3f 486c a3be
000000b0: 940a e93e 8c63 f0bd 3e68 febe 97a4 2d3f
000000c0: 8de1 fb3e 6313 4cbe c18a 64be 0bc8 d13d
000000d0: 1cb5 d83e 76f1 0abf 3a21 90be c4f8 68be
000000e0: addc 1a3f 3789 efbd 11b5 bfbe 9fb8 ca3e
000000f0: e6ed 913e a5ed 53be 3027 103f af73 f3be
00000100: bdc6 b63e fbe5 1d3f 0cba 19bf 6229 cc3e
00000110: bd14 e73c 79bd f3be 1842 9dbe 7391 21be
00000120: 5d68 653f 5a3e 603f aa18 e8bd 145a 0d3f
00000130: 8bec 04bf 1c21 29bf ea87 0bbf 1078 003f
00000140: 9989 64be 145f 2c3f c1ea 633e eb4f 80be
00000150: 9a34 d53e dae2 723c 1156 9bbd 3540 4dbe
00000160: 1db0 50be aa0f 0dbe a2e0 3cbe 908a 2a3e
00000170: 2a6a 7c3c 12d2 913e 3b12 25bf c2e4 cbbd
00000180: 7c02 693d 5c7e a5be 015c 28bf a311 9a3e
00000190: 25c9 acbd a6b6 993c f070 4bbd 1f43 343e
000001a0: 5a5d 0ebe fc8c d23d 0d10 7bbf 4564 2f3f
000001b0: e57c 98bc e036 15bf 56ab 56bf a485 053d
000001c0: b0c2 a63e 6cb5 abbe 6592 f83e 04ef 0d3f
000001d0: 1cd9 283d efd4 13bf 2519 26be 82f0 8abe
000001e0: af57 9d3e d199 ca3e b1a2 323f 295f cc3e
000001f0: 91fa 11bf bf87 0fbf 921e 72be ff0a afbd

conv_layers.0.bias f4 [64]
3.873989e-07 0.13000163 -0.06998733 -0.020012045 0.0100009525 0.090007134 -0.09000294 -0.059999183
-6.3576867e-06 -0.040003713 0.0700112 0.019999463 -0.089941144 -0.020014217 0.039999302 -0.009998028
-0.09988698 0.06999411 0.019995986 -0.07000069 -0.02000179 0.13000362 0.039997265 -0.039992806
-0.079998106 0.019983683 -0.13999924 -2.5901945e-06 -0.17000195 -0.009996679 -0.02000275 0.12999837
-0.00999518 -0.14000852 -0.10999682 0.04001685 -0.0600026 -0.069999225 -3.050161e-06 0.04997774
0.040000077 0.010003279 0.030001052 -0.009992848 -3.7090456e-06 -0.050006874 0.11999802 -0.030000277
0.18999672 -0.07000595 -0.16999944 0.049997382 -0.099999376 -0.00023333506 -0.020025147 -0.04999949
0.09004191 0.16000313 0.08999761 -8.763382e-06 6.113582e-05 -0.039999895 -0.09000333 0.049998958
00000000: b3fb cf34 261f 053e 8455 8fbd 4df0 a3bc
00000010: 09db 233c a955 b83d 7653 b8bd b4c1 75bd
00000020: 1d54 d5b6 efda 23bd 0862 8f3d ead5 a33c
00000030: 1033 b8bd dbf4 a3bc 4fd6 233d c5ce 23bc
00000040: 8c91 ccbd 1259 8f3d 9fce a33c 865c 8fbd
00000050: cbda a3bc ab1f 053e 2cd4 233d 7fcf 23bd
00000060: 0cd6 a3bd d2b4 a33c f65b 0fbe 34d3 2db6
00000070: fe14 2ebe 1cc9 23bc cfdc a3bc 4b1e 053e
00000080: d3c2 23bc 655e 0fbe 0346 e1bd b5e8 233d
00000090: 49c5 75bd c15b 8fbd 5eb1 4cb6 75b5 4c3d
000000a0: 1fd7 233d cbe4 233c c4c4 f53c 0bb9 23bc
000000b0: ebe8 78b6 02d4 4cbd 86c1 f53d 24c3 f5bc
000000c0: 808e 423e 485f 8fbd 5514 2ebe 0eca 4c3d
000000d0: 79cc ccbd 67ab 74b9 c70b a4bc 44cc 4cbd
000000e0: e567 b83d dcd7 233e ab50 b83d 7006 13b7
000000f0: 0b36 8038 eed6 23bd aa53 b8bd b5cb 4c3d

conv_layers.1.weight f4 [64, 7]
1.1060162 1.2710195 1.2605011 -1.233441 1.08114 -1.2197461 1.2231518 1.1321822
-1.2106929 -1.0085013 1.2051678 1.0619323 0.958109 -1.0709375 -1.0520386 1.0658239
1.0691656 -0.9822602 -0.93385017 -1.1858859 1.0688497 1.157326 -0.9075684 -0.89976424
1.0222573 1.2517974 -1.1558071 -0.95220613 -1.0229977 0.9583468 0.1740508 -1.0342947
1.1238933 0.2792013 -1.2314329 -0.654526 -1.0514565 -1.2358435 -1.1254946 0.9971371
1.1277298 1.1670874 -0.9711951 1.1036836 1.167408 -1.0494996 -0.95281494 1.2579015
1.0415101 -1.2274231 -0.7835652 0.9074942 -1.0851432 1.0450063 1.0077336 -1.0771562
-0.9592504 1.049022 1.089286 1.0933805 -1.163012 1.027946 -1.0088648 1.223455
-1.0651209 -1.0562766 1.1587006 1.1080351 -1.0865722 1.2250962 -1.0075085 -1.1917908
1.2587104 -1.0482056 -0.94639814 1.234296 1.2017429 1.0201547 -0.27109122 -0.9571056
-1.2196176 1.2173505 -1.1894492 1.1767257 -1.1159309 -1.1855655 1.2016352 0.88700265
1.0048081 -1.074013 1.0580326 1.0607692 -0.9750008 1.1728863 -1.2393743 -0.96206737
1.2777612 -1.0272065 -0.42478046 0.9791847 -1.0752454 -1.1880621 -1.2203392 0.89821124
1.2531306 -1.1184349 -1.0307136 -1.0292704 -0.02144884 1.095889 1.1016786 1.1014309
1.111 -1.1277153 1.1991079 -1.2502041 -1.0366231 1.0041522 -1.1203803 0.903459
1.0462619 -1.2044514 -1.131672 0.95205027 -1.1303456 0.9924479 -0.24035197 -1.2510798
0.9371019 -1.1442318 0.982146 1.022341 -1.213634 1.1133761 1.2165302 0.9633614
-1.1396896 -1.2162707 -1.2221082 1.2094972 -0.9923123 -0.5258165 1.2576197 -1.2159344
1.0847508 -1.1431973 1.0436752 -1.1809042 -1.2156271 -1.0896448 0.92125255 1.0325322
-1.1326301 1.159137 -1.0809106 0.38955325 -0.79904336 1.1273388 -1.1824785 0.9975068
-1.2661897 0.9946169 -1.0441647 1.168903 -1.1367301 0.9567206 -1.192218 -1.1343429
-1.0596229 0.88053614 1.1225863 -1.1321146 0.9447383 -1.2051665 -1.1227825 -1.12868
-1.1154437 -1.204586 -0.96536595 -1.1010623 1.0203251 1.2658744 0.91572917 1.0807326
-0.99346566 -1.2163581 -0.88923556 1.0829006 1.2381985 -0.60455275 -1.1362132 0.95266587
-1.0708833 1.2023575 1.0993942 -1.141631 -0.7792702 1.0779558 1.1284782 0.87528783
1.1112343 -1.001841 -1.1171803 1.1530173 0.98249894 1.2243897 -1.1782993 -1.0700332
1.0773554 -1.1550927 0.9092522 -1.0702696 -1.2693663 -1.212363 1.0284741 1.0077058
1.0181906 0.9927191 1.1087958 -1.1439171 1.1315038 -1.1522106 -1.1844469 1.109125
1.0697193 -1.0962158 1.1033195 1.17107 1.0339735 -1.1994518 1.1478933 -0.95684755
0.83027846 1.0113902 1.2579161 1.2388451 -1.186678 1.0749906 -1.1462824 1.2073016
1.0455265 -0.8829832 -0.9333959 1.1985171 -1.0747935 1.2074581 -1.2091622 1.1582747
1.0311451 1.1094292 -1.1072989 -1.1574544 0.021217017 1.0407033 -1.2617681 -1.027124
00000000: f091 8d3f c4b0 a23f 1a58 a13f 65e1 9dbf
00000010: cc62 8a3f a420 9cbf 3d90 9c3f 59eb 903f
00000020: fcf7 9abf 9216 81bf f042 9a3f 66ed 873f
00000030: a246 753f 7b14 89bf 33a9 86bf eb6c 883f
00000040: 6bda 883f 6875 7bbf ce10 6fbf 1ccb 97bf
00000050: 11d0 883f 4223 943f 6756 68bf f356 66bf
00000060: 54d9 823f e63a a03f 7df1 93bf c8c3 73bf
00000070: 97f1 82bf 3756 753f 5f3a 323e c563 84bf
00000080: bcdb 8f3f 79f3 8e3e 989f 9dbf 048f 27bf
00000090: 2096 86bf 1f30 9ebf 3510 90bf 6144 7f3f
000000a0: 7359 903f 1f63 953f 3ea0 78bf 8145 8d3f
000000b0: a06d 953f 0156 86bf aeeb 73bf eb02 a13f
000000c0: 3450 853f 331c 9dbf bb97 48bf 8a51 683f
000000d0: f9e5 8abf c4c2 853f 6afd 803f 41e0 89bf
000000e0: 6f91 75bf 5a46 863f b96d 8b3f e4f3 8b3f
000000f0: 94dd 94bf bc93 833f 7b22 81bf 2c9a 9c3f
00000100: e255 88bf 1234 87bf 4d50 943f 18d4 8d3f
00000110: cc14 8bbf f4cf 9c3f 0af6 80bf 9a8c 98bf
00000120: 6c1d a13f 9a2b 86bf 2647 72bf 69fd 9d3f
00000130: b6d2 993f 6e94 823f 78cc 8abe df04 75bf
00000140: 6e1c 9cbf 24d2 9b3f df3f 98bf f39e 963f
00000150: d3d6 8ebf 9cc0 97bf 2fcf 993f 9b12 633f
00000160: 8d9d 803f 4279 89bf 9d6d 873f 49c7 873f
00000170: a799 79bf 2321 963f d1a3 9ebf 0c4a 76bf
00000180: ae8d a33f 817b 83bf d37c d9be d9ab 7a3f
00000190: a4a1 89bf 6b12 98bf 1334 9cbf 2cf1 653f
000001a0: 9566 a03f e028 8fbf 6cee 83bf 22bf 83bf
000001b0: 7ab5 afbc 1746 8c3f ce03 8d3f b0fb 8c3f
000001c0: 3f35 8e3f fa58 90bf 5e7c 993f b006 a0bf
000001d0: 11b0 84bf 0f88 803f 9f68 8fbf 1749 673f
000001e0: e9eb 853f 772b 9abf a1da 90bf 91b9 733f
000001f0: 2aaf 90bf 1111 7e3f d41e 76be 6223 a0bf
00000200: e9e5 6f3f 3076 92bf ec6d 7b3f 12dc 823f
00000210: 5c58 9bbf 1c83 8e3f 43b7 9b3f da9e 763f
00000220: 59e1 91bf c2ae 9bbf 0b6e 9cbf ced0 9a3f
00000230: 2e08 7ebf e99b 06bf aff9 a03f bda3 9bbf
00000240: 1dd9 8a3f 4a54 92bf 2697 853f de27 97bf
00000250: ab99 9bbf 7b79 8bbf 35d7 6b3f 042a 843f
00000260: 06fa 90bf 9a5e 943f 475b 8abf 8673 c73e
00000270: 1b8e 4cbf a34c 903f 755b 97bf 9b5c 7f3f
00000280: 8112 a2bf 379f 7e3f 30a7 85bf 9d9e 953f
00000290: 5f80 91bf a4eb 743f 999a 98bf 2632 91bf
000002a0: b9a1 87bf d16a 613f e8b0 8f3f 22e9 90bf
000002b0: 5fda 713f e542 9abf 56b7 8fbf 9678 90bf
000002c0: dcc6 8ebf e02f 9abf 3922 77bf 9cef 8cbf
000002d0: 039a 823f 2c08 a23f 3a6d 6a3f 7255 8a3f
000002e0: c453 7ebf 9fb1 9bbf f1a4 63bf 7d9c 8a3f
000002f0: 4a7d 9e3f f8c3 1abf 6f6f 91bf e9e1 733f
00000300: b412 89bf dae6 993f f3b8 8c3f f720 92bf
00000310: 407e 47bf 75fa 893f f971 903f dd12 603f
00000320: ed3c 8e3f 533c 80bf c4ff 8ebf 1296 933f
00000330: 0d85 7b3f cdb8 9c3f 83d2 96bf d9f6 88bf
00000340: c8e6 893f 14da 93bf c1c4 683f 98fe 88bf
00000350: 987a a2bf b62e 9bbf 0aa5 833f 81fc 803f
00000360: 1254 823f d722 7e3f 05ed 8d3f e06b 92bf
00000370: 1ed5 903f a37b 93bf f59b 97bf cff7 8d3f
00000380: 90ec 883f cd50 8cbf 9339 8d3f 9fe5 953f
00000390: 3e59 843f a387 99bf 2bee 923f f6f3 74bf
000003a0: 218d 543f 3c75 813f 6503 a13f 7a92 9e3f
000003b0: 11e5 97bf 4b99 893f 62b9 92bf dc88 9a3f
000003c0: d0d3 853f 300b 62bf 09f3 6ebf 0269 993f
000003d0: d592 89bf fd8d 9a3f d4c5 9abf 5842 943f
000003e0: 90fc 833f c701 8e3f f8bb 8dbf 7727 94bf
000003f0: 4fcf ad3c c435 853f 9e81 a1bf cd78 83bf

conv_layers.1.att f4 [1, 1, 14]
-0.48672062 0.8689504 0.24489085 -0.6809901 -0.876105 0.7747898 -0.8673812 -0.11609991
-0.11883582 0.067583025 -0.0332252 -0.097742185 -0.135408 0.20030665
00000000: 7233 f9be 8973 5e3f abc4 7a3e 5e55 2ebf
00000010: 6b48 60bf a058 463f b20c 5ebf cac5 edbd
00000020: 3260 f3bd f868 8a3d 2617 08bd 0e2d c8bd
00000030: 65a8 0abe 301d 4d3e

conv_layers.1.bias f4 [7]
0.5300035 0.7500093 0.7299997 0.49999106 0.42000222 0.7799949 0.51000696
00000000: 4fae 073f 9c00 403f 43e1 3a3f d4fe ff3e
00000010: 880a d73e bfad 473f d18f 023f
